fixed_power_ver/model_unzipped/policy.pth (torch, 192882 bytes, 11 tensors)

mlp_extractor.policy_net.0.weight f4 [64, 200]
0.039443232 -0.09598021 0.07752957 -0.03433612 -0.11214599 0.090797946 0.1051996 0.039399322
-0.02590389 0.13435647 0.12827311 -0.119765095 0.15046217 0.26898816 0.17513444 -0.052409653
-0.15270443 -0.0039635994 0.026173614 -0.09480132 0.06256347 0.022520404 0.099733256 -0.084015705
-0.039448958 0.033711903 0.011150183 0.11890646 0.072292194 -0.10258892 0.091967046 0.1412307
0.037976593 0.0055772047 0.07050661 -0.112652615 0.061211187 0.04433542 -0.08980728 -0.12293004
0.06475253 0.016635532 -0.045356445 0.18960148 -0.15368783 -0.22606444 0.04251497 -0.0014378594
0.04390694 -0.046513155 -0.037994638 0.038979493 -0.12530068 0.029230174 -0.037197165 0.062773034
-0.014488894 -0.04574737 0.0027916615 0.11374533 -0.058196463 0.0024900313 -0.12914228 -0.046276312
-0.039281033 -0.018318774 0.06531479 -0.13027927 0.03799835 -0.06632487 -0.14765975 -0.077977374
-0.08527188 0.118276365 0.09009092 -0.0064248256 -0.0077183614 0.16115646 0.16145451 0.028481046
0.09350003 -0.108028084 -0.0463896 0.14258184 0.0348743 -0.03120126 0.0786623 -0.106121525
0.022248585 -0.033449408 0.08742252 0.0782876 -0.15854916 -0.261643 0.14085893 0.022339791
0.119073525 0.008675729 0.07199428 -0.09359535 0.09538343 -0.14812283 0.02836397 -0.021388285
0.08773614 0.10239988 -0.089267276 -0.0014094212 0.012891841 0.022726545 0.112630434 -0.094390534
0.11210857 -0.099964485 0.0061641093 0.10251942 -0.07116212 0.03360411 0.039183993 -0.03247638
0.022735883 0.028038038 -0.045168728 -0.003400175 0.13387804 -0.040608022 -0.09843887 -0.13894336
0.0022406431 0.00366511 -0.019216366 -0.079104245 -0.026211957 -0.15046754 0.14991437 0.07949838
0.06256242 0.11554059 -0.050148256 -0.008639213 0.03183927 0.1375641 0.09687879 -0.26522145
-0.13076718 -0.1058683 -0.15030308 -0.083786346 -0.15273029 -0.03356223 0.13727036 0.043968793
-0.1314547 -0.12287811 0.24042636 -0.043814007 0.1972897 -0.04509036 -0.08127309 0.18028185
0.15166222 -0.0693692 -0.038840022 0.050784286 0.00018461118 0.017822359 0.046915483 0.07796665
-0.004804292 -0.070671424 -0.0057427227 -0.013973418 0.02755496 -0.09538424 -0.11172067 0.05393095
-0.041171037 -0.012250599 -0.22465993 0.021135263 0.022930501 -0.03745691 -0.3066581 0.15388423
0.18655294 0.005976392 -0.105291195 0.059632048 -0.033944987 0.12060895 0.0894459 -0.01623272
-0.27570677 0.043921508 0.115807965 -0.05681493 0.07415196 -0.11342351 0.04003154 0.05402686
-0.08117382 -0.16173379 0.022666227 0.09893036 0.04650583 -0.057935577 0.18362911 0.10314571
-0.17196982 -0.05043398 -0.025993383 -0.077647656 -0.026161144 -0.016327797 0.041481666 0.018563522
0.13774352 0.0377954 -0.060268328 0.035146214 -0.014816909 -0.045506828 -0.12225311 0.01477993
-0.13650855 -0.12857029 0.00415617 -0.043800686 -0.04920476 -0.06718873 0.10619298 0.17788056
0.0914617 -0.033647522 -0.052796524 0.056235872 0.017700996 -0.029116953 -0.14027953 0.023102337
-0.14184202 0.024297504 0.20743357 0.066833824 0.08568983 0.07258245 0.07488994 0.23597594
0.08495559 -0.10343767 0.036657687 0.098012775 0.12980641 0.025360085 -0.02064774 0.07800197
00000000: 3a8f 213d 4691 c4bd d3c7 9e3d 08a4 0cbd
00000010: ccac e5bd 46f4 b93d e372 d73d 2f61 213d
00000020: 6534 d4bc be94 093e 075a 033e 6747 f5bd
00000030: c112 1a3e d1b8 893e 7156 333e 81ab 56bd
00000040: 8d5e 1cbe 15e1 81bb 0c6a d63c 3227 c2bd
00000050: 4721 803d b67c b83c f340 cc3d 6d10 acbd
00000060: 3b95 21bd 7e15 0a3d 42af 363c 3b85 f33d
00000070: ee0d 943d 241a d2bd 3859 bc3d c89e 103e
00000080: 588d 1b3d fcc0 b63b c565 903d 6ab6 e6bd
00000090: 95b8 7a3d 0f99 353d e1ec b7bd bfc2 fbbd
000000a0: f99c 843d 3d47 883c aec7 39bd e426 423e
000000b0: 5860 1dbe 707d 67be 2d24 2e3d 8e76 bcba
000000c0: c3d7 333d 9484 3ebd 44a0 1bbd f6a8 1f3d
000000d0: d24e 00be 1e74 ef3c 0e5c 18bd 268f 803d
000000e0: d362 6dbc 9861 3bbd 4ff4 363b 50f3 e83d
000000f0: 6a5f 6ebd cb2f 233b e03d 04be 3b8c 3dbd
00000100: 26e5 20bd 4111 96bc c3c3 853d ee67 05be
00000110: 28a4 1b3d 55d5 87bd 1e34 17be 9ab2 9fbd
00000120: 06a3 aebd e13a f23d 9781 b83d 5887 d2bb
00000130: 4fea fcbb 3306 253e 5554 253e 1551 e93c
00000140: f27c bf3d d43d ddbd 0503 3ebd f900 123e
00000150: 5bd8 0e3d c999 ffbc b319 a13d 3e56 d9bd
00000160: aa42 b63c 3f02 09bd 940a b33d 4055 a03d
00000170: b65a 22be 12f6 85be 533d 103e f001 b73c
00000180: d2dc f33d a524 0e3c bd71 933d ebae bfbd
00000190: 6358 c33d 83ad 17be 8e5b e83c 7c36 afbc
000001a0: 01af b33d 07b7 d13d c3d1 b6bd 54bc b8ba
000001b0: 4d38 533c 052d ba3c c9aa e63d d34f c1bd
000001c0: 2e99 e53d 2eba ccbd 4cfc c93b b4f5 d13d
000001d0: 72bd 91bd 77a4 093d 657f 203d f405 05bd
000001e0: 9a40 ba3c 07b0 e53c d802 39bd 78d5 5ebb
000001f0: 5317 093e 9954 26bd 519a c9bd 2b47 0ebe
00000200: c1d7 123b 5832 703b a46b 9dbc 6801 a2bd
00000210: 75ba d6bc 2a14 1abe 2783 193e 0cd0 a23d
00000220: ba20 803d 8ba0 ec3d 4268 4dbd 7c8b 0dbc
00000230: e569 023d 9add 0c3e 6368 c63d 1bcb 87be
00000240: d5e7 05be 7bd1 d8bd 0de9 19be 2d98 abbd
00000250: 5465 1cbe 8d78 09bd 9a90 0c3e 9f18 343d
00000260: 109c 06be 85a7 fbbd 5432 763e 5176 33bd
00000270: 5006 4a3e abb0 38bd 8172 a6bd ce9b 383e
00000280: 574d 1b3e 7011 8ebd b716 1fbd 2f03 503d
00000290: 3094 4139 3200 923c 732a 403d fbac 9f3d
000002a0: 536d 9dbb 2ebc 90bd 732d bcbb c3f0 64bc
000002b0: f1ba e13c d058 c3bd cecd e4bd b3e6 5c3d
000002c0: f6a2 28bd bdb6 48bc 410d 66be dc23 ad3c
000002d0: bfd8 bb3c 6b6c 19bd 4a02 9dbe d493 1d3e
000002e0: bc07 3f3e 9cd5 c33b e9a2 d7bd bc40 743d
000002f0: e609 0bbd d301 f73d 692f b73d 7bfa 84bc
00000300: 7029 8dbe 0ae7 333d ba2c ed3d c6b6 68bd
00000310: fcdc 973d 964a e8bd 1df8 233d 454b 5d3d
00000320: 763e a6bd 8b9d 25be 86ae b93c 009c ca3d
00000330: e67c 3e3d db4d 6dbd 4509 3c3e 0f3e d33d
00000340: db18 30be dc93 4ebd 13f0 d4bc bc05 9fbd
00000350: e54f d6bc dfc1 85bc aee8 293d 8712 983c
00000360: a30c 0d3e 59cf 1a3d ecdb 76bd 7af5 0f3d
00000370: 9fc2 72bc 5e65 3abd d75f fabd 8527 723c
00000380: e6c8 0bbe eea7 03be 7b30 883b 5968 33bd
00000390: ee8a 49bd 3f9a 89bd b57b d93d 5226 363e
000003a0: 4650 bb3d fcd1 09bd 2b41 58bd 9657 663d
000003b0: ae01 913c ad86 eebc 70a5 0fbe 1d41 bd3c
000003c0: 093f 11be 8f0b c73c 7769 543e 2ce0 883d
000003d0: 267e af3d 1ca6 943d e65f 993d ada3 713e
000003e0: 32fd ad3d 21d7 d3bd 5f26 163d ecba c83d
000003f0: f9eb 043e f4bf cf3c 7325 a9bc 7fbf 9f3d

mlp_extractor.policy_net.0.bias f4 [64]
-6.728033e-06 1.5869304e-06 1.4707536e-05 7.147392e-05 -3.6771733e-05 0.00010101467 -8.472254e-05 4.6357563e-05
-4.951796e-05 -2.4692867e-05 6.411498e-05 -3.6608526e-05 -3.254562e-05 4.716671e-05 -6.469218e-05 -2.1034835e-05
5.1729854e-05 2.7360375e-05 -1.0797931e-05 -7.984448e-05 2.0115147e-05 -3.9951603e-05 -9.505892e-05 -2.9884859e-05
-6.609904e-05 2.9430761e-05 -8.7224464e-05 4.4603454e-05 -3.7492653e-06 4.571985e-05 -4.0537707e-05 -4.125881e-05
-8.817494e-05 -3.8934653e-05 2.1214095e-05 -7.005166e-06 1.05813044e-07 1.0382959e-05 1.0025337e-05 -4.1211602e-05
-2.795371e-06 5.9619774e-06 -1.104036e-05 8.590446e-06 7.8641184e-05 -8.105581e-05 1.30328235e-05 0.00010317914
2.4582457e-06 1.0194207e-05 -3.6680144e-06 -6.0704683e-06 -2.8419561e-05 -4.4044285e-05 -3.1237287e-05 -1.51951745e-05
-1.03537095e-05 2.5549009e-05 4.9765797e-05 -3.633654e-05 -1.9247136e-05 2.887545e-05 -0.00010532565 1.4071645e-07
00000000: 5dc1 e1b6 83fe d435 63c0 7637 45e4 9538
00000010: 593b 1ab8 d7d7 d338 11ad b1b8 0e70 4238
00000020: 81b1 4fb8 8723 cfb7 7875 8638 1b8c 19b8
00000030: 9881 08b8 dfd4 4538 5aab 87b8 f773 b0b7
00000040: 82f8 5838 f583 e537 c328 35b7 2e72 a7b8
00000050: f3bc a837 b591 27b8 5e5a c7b8 3fb1 fab7
00000060: a79e 8ab8 14e2 f637 47ec b6b8 9814 3b38
00000070: e39b 7bb6 51c3 3f38 0807 2ab8 4f0d 2db8
00000080: 8fea b8b8 c44d 23b8 ecf4 b137 eb0d ebb6
00000090: 563b e333 7832 2e37 7f32 2837 9fda 2cb8
000000a0: 1c98 3bb6 ff0c c836 fc39 39b7 af1f 1037
000000b0: 2aec a438 82fc a9b8 8da7 5a37 e161 d838
000000c0: 57f8 2436 c907 2b37 0228 76b6 edb0 cbb6
000000d0: 8b66 eeb7 31bc 38b8 c804 03b8 c7ee 7eb7
000000e0: d8b4 2db7 1452 d637 9ebb 5038 1068 18b8
000000f0: e974 a1b7 8f39 f237 47e2 dcb8 d817 1734

mlp_extractor.policy_net.2.weight f4 [64, 64]
0.027541218 0.08273335 -0.20405796 -0.041388515 0.03738926 0.14283289 0.12543865 -0.22076434
-0.23139213 0.12871557 0.068190604 0.31873873 0.04956146 0.2403056 -0.37762102 -0.13592012
0.11123167 0.012215701 -0.18523179 -0.01350438 -0.28869146 0.23784463 0.29031226 -0.28852043
0.3406797 -0.24877723 -0.38682503 0.15253222 -0.043016467 0.1896168 0.012271596 0.049731396
-0.18175493 0.06549075 -0.0054324428 0.115824565 -0.0056557623 -0.07182106 -0.178016 0.062414814
-0.08550459 0.0148163205 -0.056118023 0.03945788 0.2975142 -0.030586593 -0.05454314 -0.107032485
0.00077673397 0.074134775 0.083051205 0.081684195 0.12462247 0.17502116 -0.04132794 0.32353824
0.228564 -0.12187315 -0.00775731 0.011413963 -0.2507051 0.18653165 0.33963633 -0.24487786
0.14016324 -0.09125123 -0.5829695 0.22087564 -0.018863032 0.3109192 -0.18213576 0.061745446
0.18371467 0.22910199 -0.0002951238 0.11319026 0.22335552 -0.2897555 -0.16642953 -0.14983873
-0.1912973 -0.09619969 0.02605368 -0.26774213 -0.053978357 -0.22249965 -0.04200891 -0.036163382
-0.04955111 0.16386372 -0.2073399 0.10083115 0.2536413 -0.12407279 -0.5285848 0.13604316
-0.28581676 -0.07207646 0.06026236 -0.036627255 0.041313253 0.15208675 0.16754642 0.08447173
-0.085660905 -0.16336972 0.028431443 0.045486357 0.13450243 -0.028017309 0.116104275 -0.17251174
0.019400414 -0.12455667 0.11920684 -0.1641849 -0.19557768 -0.030950679 -0.0018146574 -0.09141204
-0.17953938 -0.09216554 0.18001051 0.236157 0.020797238 -0.19199358 -0.099057905 -0.032485206
-0.09174931 0.34142122 -0.14727825 -0.22298741 -0.084792085 -0.32846382 -0.01753739 0.040455755
-0.10480294 -0.32117233 0.09254004 0.0062426296 -0.17655215 -0.029149527 -0.26076463 0.45061278
-0.2142087 0.3079869 0.03433889 -0.1351819 0.13207589 -0.0045403573 0.029929591 -0.16939995
-0.13478254 0.0516901 -0.15623266 -0.021240532 0.20121875 0.19738515 -0.04353277 -0.27844858
-0.11877296 -0.07063604 0.17275019 0.07775573 0.3589876 -0.20765084 -0.01323282 -0.04197051
-0.108922936 -0.03955801 0.33355018 0.04020175 0.11811042 -0.10255495 -0.0029657858 -0.076306865
0.15460113 0.042247716 0.036972206 -0.08446929 0.15197125 -0.09279615 -0.048399124 -0.033063136
0.10452603 -0.24849892 -0.17460763 0.04596879 -0.1795373 -0.23886262 -0.4466736 -0.011288598
0.06985341 -0.19595551 0.033797596 -0.010128496 -0.22123234 -0.12509547 -0.33428538 0.25787523
0.053460527 0.07223168 0.2276687 0.13616486 0.06473049 0.035712246 -0.13863893 -0.025382752
0.02845131 -0.2178882 -0.05712222 -0.49526915 0.058798116 -0.020318069 -0.054706138 -0.04266122
-0.16235983 0.36619547 0.14694357 0.004774458 -0.06711302 0.15485369 0.19699235 -0.18149623
0.13782188 -0.14998782 0.23672114 -0.00014166227 -0.10326874 0.17512077 -0.17259467 -0.0120132435
0.21362358 0.3137809 -0.077000044 -0.1140634 0.019075267 -0.17994949 0.007223826 0.067205146
0.061115194 0.27418834 -0.049862877 -0.007253661 0.10659734 0.1839848 0.21853238 -0.33483118
0.14216088 -0.088404335 -0.11139581 0.1748884 -0.22891735 -0.06283928 0.32557675 -0.36336663
00000000: 1f9e e13c 1a70 a93d 92f4 50be 0187 29bd
00000010: 7b25 193d c942 123e fd72 003e 0c10 62be
00000020: 0ff2 6cbe 04ce 033e 84a7 8b3d b931 a33e
00000030: f500 4b3d ac12 763e 8b57 c1be a52e 0bbe
00000040: 6ecd e33d 5d24 483c 67ad 3dbe 7a41 5dbc
00000050: 5ecf 93be 8b8d 733e cfa3 943e f3b8 93be
00000060: 926d ae3e 75bf 7ebe ee0d c6be 6831 1c3e
00000070: 0932 30bd e82a 423e ce0e 493c 26b3 4b3d
00000080: f71d 3abe 0420 863d a202 b2bb 6e35 ed3d
00000090: f953 b9bb eb16 93bd d449 36be ada6 7f3d
000000a0: 081d afbd 27c0 723c 03dc 65bd 969e 213d
000000b0: c853 983e bc90 fabc a168 5fbd d933 dbbd
000000c0: bc9d 4b3a f9d3 973d c016 aa3d 0b4a a73d
000000d0: 113a ff3d bf38 333e 7c47 29bd cea6 a53e
000000e0: ae0c 6a3e a198 f9bd 0831 febb a101 3b3c
000000f0: 6b5c 80be 2702 3f3e d0e4 ad3e 43c1 7abe
00000100: f486 0f3e ede1 babd 7d3d 15bf 392d 623e
00000110: a586 9abc cd30 9f3e cc81 3abe cbe8 7c3d
00000120: b31f 3c3e b699 6a3e d9ba 9ab9 4cd0 e73d
00000130: 4fb7 643e d55a 94be 816c 2abe 536f 19be
00000140: 70e3 43be 5804 c5bd 876e d53c 7f15 89be
00000150: 6918 5dbd f3d6 63be 8911 2cbd 0e20 14bd
00000160: 1bf6 4abd e4cb 273e e950 54be 9080 ce3d
00000170: 46dd 813e e019 febd 5551 07bf e64e 0b3e
00000180: 9356 92be d39c 93bd aad5 763d 7606 16bd
00000190: 1638 293d a1bc 1b3e 4a91 2b3e 84ff ac3d
000001a0: fc6e afbd 644a 27be 0fe9 e83c e74f 3a3d
000001b0: 01bb 093e 8e84 e5bc 14c8 ed3d eba6 30be
000001c0: 9eed 9e3c 9117 ffbd b722 f43d 1620 28be
000001d0: 8445 48be 478c fdbc ccd9 edba 3c36 bbbd
000001e0: 2cd9 37be 49c1 bcbd ad54 383e 24d3 713e
000001f0: f85e aa3c f799 44be dfde cabd 350f 05bd
00000200: 10e7 bbbd c3ce ae3e 1cd0 16be d056 64be
00000210: 79a7 adbd 692c a8be 93aa 8fbc efb4 253d
00000220: eca2 d6bd b370 a4be a285 bd3d f98e cc3b
00000230: 16ca 34be fdca eebc f182 85be b8b6 e63e
00000240: 8759 5bbe 75b0 9d3e f0a6 0c3d 206d 0abe
00000250: e73e 073e 47c7 94bb e72e f53c 2e77 2dbe
00000260: 6f04 0abe 00b9 533d 74fb 1fbe a000 aebc
00000270: 4a0c 4e3e 551f 4a3e 6b4f 32bd d090 8ebe
00000280: 3d3f f3bd a1a9 90bd 6de5 303e 653e 9f3d
00000290: 39cd b73e 6ca2 54be 78ce 58bc 45e9 2bbd
000002a0: fd12 dfbd 9407 22bd 17c7 aa3e 97aa 243d
000002b0: e0e3 f13d 5408 d2bd a15d 42bb c646 9cbd
000002c0: c24f 1e3e f10b 2d3d 2b70 173d 3cfe acbd
000002d0: 5a9e 1b3e e80b bebd 293e 46bd 366d 07bd
000002e0: be11 d63d 8076 7ebe 58cc 32be c549 3c3d
000002f0: a0d8 37be 6798 74be 67b2 e4be d0f3 38bc
00000300: 4e0f 8f3d 90a8 48be 596f 0a3d fef1 25bc
00000310: bb8a 62be 0719 00be 7427 abbe 3908 843e
00000320: 6df9 5a3d 34ee 933d fc21 693e cd6e 0b3e
00000330: 6b91 843d 0147 123d 5df7 0dbe 7def cfbc
00000340: b912 e93c 161e 5fbe fdf8 69bd eb93 fdbe
00000350: 4bd6 703d 1472 a6bc 8b13 60bd 88bd 2ebd
00000360: a841 26be f97d bb3e 6078 163e 0e73 9c3b
00000370: 8d72 89bd f791 1e3e 5db8 493e 26da 39be
00000380: 2e21 0d3e 6896 19be 0767 723e 2d8b 14b9
00000390: 907e d3bd dc52 333e a8bc 30be 32d3 44bc
000003a0: 24c0 5a3e e4a7 a03e 33b2 9dbd 129a e9bd
000003b0: bc43 9c3c ae44 38be d8b5 ec3b daa2 893d
000003c0: ed53 7a3d 6a62 8c3e 043d 4cbd 1eb0 edbb
000003d0: b54f da3d 8366 3c3e f4c6 5f3e fe6e abbe
000003e0: 9f92 113e 550d b5bd 7d23 e4bd f215 333e
000003f0: 4f69 6abe e1b1 80bd ffb1 a63e 310b babe

mlp_extractor.policy_net.2.bias f4 [64]
-5.0327082e-05 8.143259e-05 8.369484e-05 6.433876e-05 4.813354e-05 -7.1499766e-05 -9.561801e-05 -5.1900064e-05
6.496173e-05 7.471042e-05 -6.953087e-05 9.272256e-06 -7.0220245e-05 2.1148951e-05 -6.186329e-05 -5.6795685e-05
1.6416057e-05 -5.4548753e-05 -7.918552e-05 -7.653442e-05 4.9787675e-05 -6.84157e-05 -7.2662115e-05 -5.1014507e-05
2.9472725e-05 1.5829972e-05 -3.1265397e-05 -5.2128296e-05 -6.744881e-05 -5.1525636e-05 -7.776903e-05 -2.3882967e-05
-6.7781048e-06 -2.6227275e-05 -7.738912e-05 1.7449554e-05 -6.138187e-05 6.76038e-05 -3.9888815e-05 2.804011e-05
-4.9514387e-05 6.5346896e-05 7.444422e-05 -5.0113766e-05 -4.039449e-05 -4.987251e-05 -6.580469e-05 3.5365047e-05
3.9758255e-05 -4.761272e-05 -6.821561e-05 -6.174829e-05 6.61066e-05 -5.0495262e-05 -3.5386583e-05 -7.403858e-05
-7.897288e-05 8.3523664e-05 -4.697308e-05 -4.3928758e-05 -5.126056e-05 0.00010221905 -3.413478e-05 -6.3665066e-05
00000000: 4b16 53b8 cac6 aa38 5385 af38 9ced 8638
00000010: ffe2 4938 25f2 95b8 8786 c8b8 45af 59b8
00000020: 103c 8838 daad 9c38 1ad1 91b8 0990 1b37
00000030: 3543 93b8 0769 b137 9abc 81b8 e737 6eb8
00000040: 37b5 8937 47cb 64b8 6710 a6b8 1b81 a0b8
00000050: 1cd3 5038 667a 8fb8 2d62 98b8 69f8 55b8
00000060: 323c f737 9bca 8437 f722 03b8 55a4 5ab8
00000070: 4e73 8db8 3b1d 58b8 ee17 a3b8 4858 c8b7
00000080: 7a6f e3b6 a502 dcb7 f84b a2b8 a260 9237
00000090: 24ba 80b8 84c6 8d38 4a4e 27b8 ad37 eb37
000000a0: abad 4fb8 d90a 8938 f01e 9c38 3f31 52b8
000000b0: 416d 29b8 332e 51b8 a000 8ab8 ee54 1438
000000c0: 1ac2 2638 c5b3 47b8 fa0e 8fb8 dc7e 81b8
000000d0: b6a2 8a38 e0ca 53b8 0e6c 14b8 2945 9bb8
000000e0: 3e9e a5b8 6d29 af38 f604 45b8 2540 38b8
000000f0: 9b00 57b8 6f5e d638 f12b 0fb8 ec83 85b8

mlp_extractor.value_net.0.weight f4 [64, 200]
-0.16460615 0.01651691 -0.07770859 0.06677087 0.05431639 0.018009316 0.048828043 0.12622161
-0.15842666 0.045349013 0.16045254 -0.0018940496 0.18648155 0.032135867 -0.13793994 0.21968083
-0.024819776 0.08197506 0.099090904 0.0033096431 0.054561745 -0.014812376 -0.22457159 -0.16920353
-0.026340278 -0.1311871 -0.0144615015 0.018046765 0.072136916 -0.06453851 -0.01260633 -0.1198689
0.026698973 -0.026662078 0.14366332 0.19797254 -0.030827282 0.09520864 0.078123026 -0.016874826
0.0032656994 -0.16588035 -0.13968946 0.18308423 0.028984975 0.24208787 0.16284563 0.076450594
-0.012879016 0.074103415 0.07604274 0.08993036 0.05114285 0.13000046 0.014702089 0.007941045
0.014271863 -0.0033650522 0.08469941 -0.044791386 0.03705619 0.08615319 0.029382482 0.044297412
0.151366 0.0030421445 -0.016799552 -0.031122755 0.05148898 0.05419609 0.13307904 0.20092629
0.024431411 0.02523602 0.06713409 -0.017216029 -0.00855534 -0.14819522 -0.0017774585 0.10366639
0.109623425 0.019586409 0.051159523 0.03660648 -0.011626084 0.09887384 0.08147499 0.1992693
0.06748675 -0.002269398 0.021510972 -0.02852636 0.14393963 0.04372993 0.37011692 -0.027170245
0.22609489 0.06789838 -0.035716742 0.008818878 -0.10238764 0.03333547 0.013805483 0.15110238
0.05655427 0.04166046 -0.17947704 -0.09957456 -0.016345302 0.11880791 0.11646476 0.14878465
-0.025286831 0.09438129 0.16153586 -0.09052916 0.1093787 0.055313475 0.03507039 0.00441767
0.104423106 0.02862605 0.031199008 -0.09561888 0.057320543 0.0020845674 0.017879548 0.08389919
0.06437985 -0.104666896 -0.0008722905 0.03395607 -0.08433095 0.048958875 0.024700392 0.07223028
0.15667893 0.031637933 0.009906204 -0.11546037 0.053397432 -0.07321593 -0.0072878045 -0.055187877
0.012717293 0.15935063 0.08435817 0.038506143 0.2227151 -0.05081478 0.049440503 -0.06866808
-0.093810566 -0.025811436 0.15080889 0.040606037 0.024334215 -0.17538147 0.05455091 0.057451252
-0.13602975 -0.08897031 0.023779951 -0.049504366 -0.014454095 -0.056454998 0.22646357 0.028389215
0.069896616 0.07115041 -0.09500068 -0.031631984 -0.16657367 0.10365032 0.02407785 0.13493453
-0.064953245 0.15803516 0.2295146 -0.01139441 -0.32234076 -0.040760953 -0.02514197 -0.16324334
0.01341893 -0.078092396 -0.008060972 0.102619775 0.054658696 0.16324663 -0.031399544 -0.050354175
0.025291093 0.19377641 -0.11810032 -0.075123735 -0.14732623 -0.10569659 0.05630578 0.17816481
-0.18193384 0.123746544 0.023662038 -0.026136853 -0.16647728 0.0057540373 -0.0038405366 0.12781881
0.045549024 -0.075055294 -0.026423374 0.06479642 -0.029426951 -0.021111658 -0.051033072 0.04661718
-0.20751657 -0.07134868 0.024011262 -0.021590833 -0.08911146 -0.11617791 0.058258023 -0.11873576
0.0636882 -0.15503827 -0.102994084 -0.060055748 0.1164338 -0.20201978 0.13345666 0.014450573
0.07219277 0.061237723 0.1503375 -0.014401543 -0.05727293 -0.06110043 -0.12016243 -0.06843335
-0.24672937 -0.04759056 0.0787105 0.03403263 0.08038663 -0.054405205 -0.023978656 0.06269081
0.117737144 0.067566946 -0.19925128 0.052815363 -0.016348919 0.18880445 0.08188624 0.039539214
00000000: 848e 28be 794e 873c ae25 9fbd 2abf 883d
00000010: dd7a 5e3d 4688 933c eaff 473d 3d40 013e
00000020: 993a 22be e3bf 393d ac4d 243e c241 f8ba
00000030: 05f5 3e3e e6a0 033d 2140 0dbe 03f4 603e
00000040: d852 cbbc 8ae2 a73d 2cf0 ca3d 99e6 583b
00000050: 237c 5f3d 9caf 72bc 18f6 65be b143 2dbe
00000060: 91c7 d7bc e955 06be efef 6cbc cfd6 933c
00000070: 85bc 933d c42c 84bd c88a 4ebc d37d f5bd
00000080: ceb7 da3c 6e6a dabc 7a1c 133e 50b9 4a3e
00000090: 7f89 fcbc bffc c23d f7fe 9f3d 133d 8abc
000000a0: 5805 563b 8adc 29be c10a 0fbe 6f7a 3b3e
000000b0: e671 ed3c e2e5 773e 01c1 263e 2192 9c3d
000000c0: 8202 53bc 88c3 973d 4cbc 9b3d 692d b83d
000000d0: 2a7b 513d d71e 053e 08e1 703c 281b 023c
000000e0: 88d4 693c 3588 5cbb e276 ad3d 2c77 37bd
000000f0: 3bc8 173d 1571 b03d 88b3 f03c 3471 353d
00000100: b0ff 1a3e b75e 473b 379f 89bc 26f5 febc
00000110: 1ce6 523d b8fc 5d3d df45 083e 9fbf 4d3e
00000120: 6224 c83c c5bb ce3c 997d 893d a108 8dbc
00000130: b22b 0cbc 7dc0 17be 9cf9 e8ba 0b4f d43d
00000140: 3f82 e03d ad73 a03c a68c 513d adf0 153d
00000150: 557b 3ebc 5e7e ca3d 5cdc a63d 400d 4c3e
00000160: 7e36 8a3d 2eba 14bb c737 b03c 1db0 e9bc
00000170: e964 133e 281e 333d f77f bd3e 2294 debc
00000180: 6b85 673e 4e0e 8b3d b84b 12bd 0e7d 103c
00000190: 9cb0 d1bd c68a 083d 6430 623c 95ba 1a3e
000001a0: 73a5 673d 29a4 2a3d d4c8 37be bfed cbbd
000001b0: 95e6 85bc 9051 f33d 1385 ee3d 015b 183e
000001c0: 5426 cfbc fa4a c13d a869 253e 5a67 b9bd
000001d0: f101 e03d 6290 623d f8a5 0f3d 1ac2 903b
000001e0: c8db d53d 2e81 ea3c 1095 ff3c d5d3 c3bd
000001f0: f2c8 6a3d 3d9d 083b 2178 923c 57d3 ab3d
00000200: 95d9 833d 995b d6bd 6daa 64ba 8515 0b3d
00000210: b5b5 acbd 1a89 483d 7a58 ca3c 78ed 933d
00000220: 7170 203e c796 013d a24d 223c 7d76 ecbd
00000230: 44b7 5a3d 3cf2 95bd 89ce eebb af0c 62bd
00000240: 315c 503c d02c 233e fac3 ac3d 9eb8 1d3d
00000250: 6d0f 643e 2923 50bd 2082 4a3d daa1 8cbd
00000260: c11f c0bd 8172 d3bc a56d 1a3e 8452 263d
00000270: 8c58 c73c 3397 33be c670 5f3d 0152 6b3d
00000280: 624b 0bbe 1136 b6bd 2cce c23c 17c5 4abd
00000290: ded0 6cbc 5b3d 67bd 11e6 673e 8090 e83c
000002a0: f525 8f3d 4eb7 913d b78f c2bd 8a90 01bd
000002b0: 4a92 2abe 9e46 d43d e93e c53c 472c 0a3e
000002c0: 3506 85bd f8d3 213e e005 6b3e 9faf 3abc
000002d0: d909 a5be f5f4 26bd 88f6 cdbc 4329 27be
000002e0: 12db 5b3c e8ee 9fbd 2b12 04bc 512a d23d
000002f0: cce1 5f3d 202a 273e cf9c 00bd 2e40 4ebd
00000300: 442f cf3c 536d 463e 95de f1bd 79da 99bd
00000310: b0dc 16be 7477 d8bd e4a0 663d d670 363e
00000320: dd4c 3abe d46e fd3d e4d6 c13c f41c d6bc
00000330: 0579 2abe 5d8c bc3b 83b1 7bbb efe2 023e
00000340: 9d91 3a3d 97b6 99bd d575 d8bc fcb3 843d
00000350: ca10 f1bc 5bf2 acbc 0e08 51bd a8f1 3e3d
00000360: 397f 54be 421f 92bd 44b3 c43c 42df b0bc
00000370: 1280 b6bd afee edbd f79f 6e3d bc2b f3bd
00000380: f66e 823d 5ac2 1ebe 90ee d2bd 04fd 75bd
00000390: d874 ee3d 46de 4ebe dda8 083e 19c2 6c3c
000003a0: ced9 933d 68d4 7a3d 13f2 193e 73f4 6bbc
000003b0: 0597 6abd 7244 7abd b817 f6bd c926 8cbd
000003c0: a0a6 7cbe 52ee 42bd f832 a13d cd65 0b3d
000003d0: bfa1 a43d fed7 5ebd e36e c4bc 0a64 803d
000003e0: 2c20 f13d 8a60 8a3d 8708 4cbe ec54 583d
000003f0: 2bee 85bc f455 413e f9b3 a73d dff3 213d

mlp_extractor.value_net.0.bias f4 [64]
0.01932317 0.026230063 -0.019771935 0.021513268 0.017552441 0.010539472 -0.0051017907 -0.01833916
0.012887384 0.01510912 -0.016675165 -0.019437896 -0.01842412 0.0072382097 -0.020315776 -0.01666818
-0.018406268 -0.0065574106 0.0070303003 0.016611818 0.031207304 -0.014579091 0.0064741666 -0.014103181
-0.01597218 0.02218763 0.027012765 0.017748656 -0.016146064 0.019789645 -0.01700008 0.013428311
-0.017014788 0.009799406 -0.019057939 0.0016760095 0.012653304 0.009765451 -0.005480096 -0.02550403
0.016610881 -0.021295594 -0.0103144245 -0.014458477 -0.017048677 0.02122336 -0.021063998 -0.01515311
-0.016719839 0.011533197 0.017398592 0.0070916372 0.017802933 -0.018512055 -0.023702422 0.023197165
-0.0040724194 0.02293791 0.0036732408 -0.02041458 -0.011302539 -0.019299172 -0.013264298 -0.017141234
00000000: a04b 9e3c 6ee0 d63c c1f8 a1bc 983c b03c
00000010: 23ca 8f3c c0ad 2c3c ec2c a7bb 023c 96bc
00000020: 9b25 533c 3e8c 773c 5b9a 88bc 393c 9fbc
00000030: 2eee 96bc 812e ed3b 456d a6bc b58b 88bc
00000040: bec8 96bc 8cdf d6bb 6f5e e63b 8215 883c
00000050: 76a6 ff3c 24dd 6ebc 3f25 d43b 0711 67bc
00000060: 17d8 82bc d5c2 b53c e049 dd3c a165 913c
00000070: c044 84bc e51d a23c c043 8bbc 6b02 5c3c
00000080: 9962 8bbc b08d 203c 651f 9cbc 8cad db3a
00000090: ce4f 4f3c 45ff 1f3c 6192 b3bb d4ed d0bc
000000a0: 8b13 883c 1974 aebc d5fd 28bc 3fe3 6cbc
000000b0: aba9 8bbc 9ddc ad3c 688e acbc c044 78bc
000000c0: 0bf8 88bc bcf5 3c3c 7e87 8e3c f760 e83b
000000d0: 75d7 913c 98a6 97bc 952b c2bc fb07 be3c
000000e0: ee71 85bb 49e8 bb3c c1ba 703b 7a3c a7bc
000000f0: 492e 39bc 4c19 9ebc 8052 59bc c66b 8cbc

mlp_extractor.value_net.2.weight f4 [64, 64]
-0.068930894 -0.1830715 -0.03973263 0.029270308 -0.046940558 0.104162544 0.07925638 0.45542467
-0.27302074 -0.16395266 0.0832673 0.2845026 0.09681915 -0.14408755 0.2806842 0.03202201
0.3626918 -0.06319985 0.0796584 -0.39768508 0.17176409 0.31416532 0.34376374 0.12791769
0.05908824 -0.1848457 0.31712642 0.29891184 -0.09942771 -0.058422696 0.11281245 0.06721018
0.11144954 -0.26152697 -0.026909797 -0.202938 0.13109182 -0.28827703 -0.067784466 -0.17810734
-0.22677086 0.073331095 -0.0115177175 -0.12709421 -0.15978494 0.069404356 -0.0101161115 0.017679589
0.042128365 -0.22892421 -0.12303195 -0.0351239 -0.28887254 -0.34619257 0.044749282 -0.0033491834
0.28650913 -0.23121691 0.17034143 -0.0049019 0.00094661355 0.03237354 -0.1796056 0.04774706
-0.030037869 -0.2047992 -0.011188259 0.045911755 0.0034927593 -0.014695131 -0.10337412 -0.006527615
0.13103884 0.25782847 0.17305328 0.07590761 -0.19984715 -0.36297262 0.020982701 0.06938758
0.32667056 -0.20124596 -0.065473825 -0.10207916 -0.39390093 0.23836388 0.15810382 0.14925484
-0.19253351 0.3408601 0.013844291 -0.16340794 0.31720206 -0.15984397 0.11551341 -0.34260726
0.07746698 0.039223824 0.29935092 -0.10320665 0.0032855622 0.059044752 0.16938247 0.0070606247
-0.23710342 0.1949993 0.032203954 -0.0036970342 -0.17726734 -0.06559062 0.028233081 0.13089544
-0.22082883 0.13100831 0.13472866 0.13852468 -0.1090428 0.05091316 0.026517402 -0.04606021
-0.095844425 -0.3150821 0.15403286 -0.38915735 -0.21271494 0.27813604 0.32757458 0.022752307
0.20361961 0.25053367 0.032476418 -0.15461203 -0.020357907 -0.11542573 0.39959836 0.04558883
0.007996167 -0.26150477 0.0073656915 -0.12137463 -0.14760624 0.4316161 -0.33828926 0.07602921
0.24181771 -0.12481486 -0.054311223 0.12699094 -0.2127642 -0.014379317 0.12276019 0.0786351
-0.14309198 -0.007615937 0.16850112 -0.10454494 -0.11032307 0.24653378 -0.019363316 -0.17672074
0.02451343 0.14975047 0.13657768 0.13601688 -0.040114265 0.06023324 0.041437544 -0.08400185
-0.05647517 0.14716367 0.112971954 -0.20183519 -0.2026412 0.099491045 -0.14631104 -0.052464068
-0.23374794 -0.035475213 0.20880464 -0.02515886 0.05347254 -0.3003405 0.1311292 -0.14870311
-0.27092654 0.41839305 -0.053150836 0.22211082 -0.1848351 0.091968246 -0.318107 -0.47501805
-0.20066388 0.06734824 -0.34192127 0.15711345 0.04440076 0.06819538 -0.26127866 0.22244555
0.0054220627 -0.09199387 -0.12741856 0.075365916 0.1904709 0.39486077 -0.18735708 -0.17772953
-0.011921971 0.038757026 -0.45490617 0.040626943 0.106443524 -0.1106562 0.054721788 0.22488046
-0.4835705 0.17151745 0.19891247 0.294476 0.028833197 0.026844935 -0.18379748 0.07166557
-0.12879452 0.18115963 -0.0920023 -0.18538772 0.11052367 0.105206266 -0.12359309 0.13651752
0.08797648 0.39305347 0.30638343 -0.108269066 -0.013113288 -0.0940789 -0.15667537 -0.17293324
-0.062988445 0.1359889 -0.058439624 0.108145915 0.20822662 0.15635173 -0.09209463 0.049601298
-0.037289586 0.14107032 -0.17966604 -0.19657078 -0.15498953 -0.088116124 -0.11273703 0.24003296
00000000: a42b 8dbd 1877 3bbe afbe 22bd 49c8 ef3c
00000010: be44 40bd 2c53 d53d 2b51 a23d 6c2d e93e
00000020: 60c9 8bbe 35e3 27be 0c88 aa3d 53aa 913e
00000030: 1e49 c63d b08b 13be d7b5 8f3e 8329 033d
00000040: bdb2 b93e ec6e 81bd f123 a33d 619d cbbe
00000050: ede2 2f3e 47da a03e cd01 b03e dbfc 023e
00000060: 8306 723d 3148 3dbe 655e a23e f90a 993e
00000070: c1a0 cbbd a34c 6fbd 370a e73d 7ea5 893d
00000080: a83f e43d dde6 85be ef71 dcbc fbce 4fbe
00000090: ef3c 063e 0c99 93be 95d2 8abd c561 36be
000000a0: 9f36 68be 9d2e 963d cfb4 3cbc fc24 02be
000000b0: aa9e 23be df23 8e3d 0cbe 25bc c9d4 903c
000000c0: cb8e 2c3d 1c6b 6abe 2df8 fbbd 14de 0fbd
000000d0: 1ae7 93be 2740 b1be 064b 373d f97d 5bbb
000000e0: 53b1 923e 20c4 6cbe fc6d 2e3e 1ea0 a0bb
000000f0: 2926 783a 1e9a 043d 88ea 37be 6c92 433d
00000100: fa11 f6bc e2b6 51be f64e 37bc f70d 3c3d
00000110: c7e6 643b d9c3 70bc d0b5 d3bd 9ae5 d5bb
00000120: 0c2f 063e 1802 843e e134 313e 7375 9b3d
00000130: bba4 4cbe 8cd7 b9be eae3 ab3c 131b 8e3d
00000140: 5d41 a73e 6c13 4ebe 2417 86bd e10e d1bd
00000150: 62ad c9be a915 743e f8e5 213e 43d6 183e
00000160: 8127 45be 3785 ae3e 2ad3 623c 6954 27be
00000170: 4f68 a23e 23ae 23be 4b92 ec3d 386a afbe
00000180: 02a7 9e3d 29a9 203d 8644 993e 025e d3bd
00000190: 9652 573b e9d8 713d 9972 2d3e d05c e73b
000001a0: 3dcb 72be e6ad 473e 4be8 033d f149 72bb
000001b0: 9285 35be 6054 86bd 1049 e73c 7409 063e
000001c0: f420 62be 0b27 063e 4ff6 093e 6ad9 0d3e
000001d0: d551 dfbd 518a 503d 063b d93c a1a9 3cbd
000001e0: 154a c4bd 7152 a1be caba 1d3e a23f c7be
000001f0: f2d1 59be d967 8e3e dbb7 a73e 0c63 ba3c
00000200: a981 503e f345 803e fe05 053d 9e52 1ebe
00000210: a0c5 a6bc 5364 ecbd 2898 cc3e 5abb 3a3d
00000220: 5b02 033c f4e3 85be e65b f13b 4393 f8bd
00000230: 1726 17be c9fc dc3e 4034 adbe 34b5 9b3d
00000240: 109f 773e ef9e ffbd 7275 5ebd ea09 023e
00000250: dcde 59be 3a97 6bbc b269 fb3d 700b a13d
00000260: b486 12be 1c8f f9bb 8f8b 2c3e a81b d6bd
00000270: 10f1 e1bd 5a73 7c3e d19f 9ebc 48f6 34be
00000280: 64d0 c83c 3058 193e 05db 0b3e 0248 0b3e
00000290: db4e 24bd 21b7 763d 6aba 293d 2909 acbd
000002a0: 8252 67bd 13b2 163e d75d e73d e2ad 4ebe
000002b0: 2d81 4fbe f6c1 cb3d 90d2 15be 90e4 56bd
000002c0: 9f5b 6fbe 754e 11bd e2d0 553e f419 cebc
000002d0: 0606 5b3d 3bc6 99be bc46 063e a145 18be
000002e0: e2b6 8abe 9d37 d63e b1b4 59bd 0571 633e
000002f0: 6a45 3dbe d959 bc3d ecde a2be 9135 f3be
00000300: d57a 4dbe e0ed 893d 4e10 afbe 59e2 203e
00000310: 92dd 353d 05aa 8b3d 51c6 85be c4c8 633e
00000320: 8fab b13b 4867 bcbd 037a 02be 7259 9a3d
00000330: ce0a 433e 312b ca3e 89da 3fbe bbfe 35be
00000340: 5f54 43bc b0bf 1e3d 76e9 e8be 7068 263d
00000350: 10ff d93d b89f e2bd f423 603d 1047 663e
00000360: 8d96 f7be 45a2 2f3e b6af 4b3e 8fc5 963e
00000370: 9933 ec3c e9e9 db3c 6835 3cbe 66c5 923d
00000380: b6e2 03be e981 393e b46b bcbd 47d6 3dbe
00000390: 3c5a e23d 6276 d73d 601e fdbd 40cb 0b3e
000003a0: 032d b43d 4e3e c93e 4ade 9c3e 2cbc ddbd
000003b0: 1ed9 56bc 70ac c0bd 826f 20be 6915 31be
000003c0: 1600 81bd ad40 0b3e 635e 6fbd 9b7b dd3d
000003d0: 5c39 553e ab1a 203e 1c9c bcbd bb2a 4b3d
000003e0: f7bc 18bd bd74 103e 60fa 37be da49 49be
000003f0: 93b5 1ebe 3a76 b4bd ace2 e6bd 33cb 753e

mlp_extractor.value_net.2.bias f4 [64]
-0.03341734 -0.040137038 0.047702085 0.032242026 -0.019788664 -0.04413282 0.038097583 -0.029216284
0.036387093 -0.030291205 -0.041844953 0.026962763 0.048698463 -0.03541571 -0.031433932 0.04632387
0.028283175 0.016303672 -0.049363956 0.0099855205 0.033597335 -0.021164274 0.023390168 0.036573183
0.028542977 -0.035065107 0.042815324 0.04189271 0.05269336 0.033976417 -0.03615037 -0.01768158
-0.031646438 -0.05248178 -0.052921038 0.03971603 0.057354096 -0.04630114 -0.04042966 0.031812463
0.032906625 0.0387148 0.028433625 -0.047553033 -0.0540693 0.030110437 0.006902781 -0.054783847
0.036819056 0.025232293 -0.033609618 0.03853833 0.026948864 0.036638625 0.031783998 0.027391115
-0.026756326 -0.07813812 -0.027394963 0.025446206 -0.027549617 0.050896704 -0.027980886 0.03456372
00000000: 9fe0 08bd bc66 24bd 4363 433d 3710 043d
00000010: d61b a2bc 9ec4 34bd 360c 1c3d fd56 efbc
00000020: a20a 153d 4325 f8bc 9d65 2bbd 03e1 dc3c
00000030: 0a78 473d 1010 11bd dec0 00bd 19be 3d3d
00000040: 1eb2 e73c 478f 853c dc31 4abd 4f9a 233c
00000050: 5c9d 093d b360 adbc bd9c bf3c c3cd 153d
00000060: f6d2 e93c 6ea0 0fbd 1f5f 2f3d b197 2b3d
00000070: fed4 573d db2a 0b3d 6912 14bd f6d8 90bc
00000080: b29f 01bd 23f7 56bd bbc3 58bd 47ad 223d
00000090: 21ec 6a3d 44a6 3dbd 9299 25bd c94d 023d
000000a0: 19c9 063d 6993 1e3d a2ed e83c f8c6 42bd
000000b0: c577 5dbd 2aaa f63c b930 e23b 0765 60bd
000000c0: 94cf 163d f4b3 ce3c 3daa 09bd 5eda 1d3d
000000d0: ddc3 dc3c 6212 163d f02f 023d 5563 e03c
000000e0: 1530 dbbc e106 a0bd 676b e0bc 9074 d03c
000000f0: bcaf e1bc 1079 503d 2c38 e5bc b092 0d3d

action_net.weight f4 [200, 64]
-0.00012031809 0.0017304069 0.00106244 -0.00019980692 0.00046467746 -0.00021389355 -0.0015222364 -0.00069513026
0.00025821564 0.00081840623 2.1805854e-05 0.00027772688 -0.0005350954 -0.00072325015 -0.0017407398 0.00029290427
5.21001e-05 -0.000440246 -0.0014991681 0.00012738888 0.0007171029 -0.0005409466 -6.9242946e-05 0.00043641188
0.0009335753 5.325256e-05 -0.0014761266 -0.000900854 -0.000962008 -0.0013514006 0.00029443685 -0.00032992798
-0.0005504343 -7.170555e-05 -0.0019409726 -7.536723e-05 -0.0013271433 0.00085262355 -0.0004059505 0.0008267051
0.00205373 0.00094122003 0.00072789966 -0.0013017805 -0.0013057963 0.0006202336 -0.001211999 0.00025995402
0.00051871326 -0.0010719408 -0.00020732215 -0.0017258349 0.0016192347 -0.0014769302 0.0005284646 0.0005438366
-0.00012846544 0.0018085105 0.00027639096 -0.00050868694 -0.0004909123 -0.0005619092 -0.00066761766 -0.00039668588
0.00024704344 -0.0010798303 -0.00091189676 -0.0015820633 -0.0022968578 0.0007881516 0.0015038841 0.0014288558
-0.001289334 -0.0010329285 0.00044879786 0.00022235244 0.00044065202 0.0005655865 0.0007184417 0.0018607101
-0.003044697 0.0023438116 0.0012154381 0.001099699 -0.0024588185 0.0008327053 0.0013866342 0.0003673041
-0.0015558482 0.0004057578 0.0020280024 0.00094829116 0.0019253567 0.000265105 0.0016045695 0.0003413071
0.0003783545 0.002061099 0.0017361634 -0.0030477073 0.0010220648 -0.002085992 0.0005037654 -0.0009415345
-0.0008289582 -0.0014076241 -0.00074609637 0.002291167 0.0020806917 0.0032031613 0.0020101205 -0.0012764294
-0.0020887821 0.00041335908 0.001288597 0.001717896 -4.077703e-05 1.0572761e-05 0.00043321855 0.0014077923
0.000835335 -0.00065419805 0.001986656 0.0012529279 0.002998313 -0.001858814 0.0020650404 0.001647292
0.0010795473 -0.0015161313 -0.0008042273 0.00071309047 -0.0004612039 0.0006622477 0.002498426 0.001165882
0.00016759789 -0.00041378563 0.000694885 0.00051472255 0.0005553586 -0.00031929743 0.00046470683 0.0016457534
-0.00092994847 0.0021353364 0.0005990581 5.046565e-05 -0.0019950457 0.0024418563 0.0003830613 0.0008046436
-0.0014621379 -0.00010089674 0.001740052 0.0008715985 0.00070301525 0.0006174588 3.508537e-05 -0.0005679139
-0.0008565076 -0.00013396783 0.000624479 -0.0015149371 0.0015766806 -0.0006262573 0.0002455889 -0.0018625347
-0.000251673 0.000111167676 -0.00038937244 0.0012200911 0.0009864985 0.0018699066 0.0011982836 -0.001658431
-0.00038510957 0.0010805933 0.001640328 0.0020597852 -3.1964166e-05 0.0004737788 -0.00010846972 0.0012677594
0.0012267515 -0.0006222126 0.0015878358 0.00028798834 0.0006328489 0.00016413382 -0.00020662376 0.0005739556
-0.0008002021 0.0012189667 0.0008530319 0.0007772239 0.001265942 -0.0014014031 -0.00017830002 -0.00020174604
0.0007751128 0.00045827375 -0.00026066205 0.000510442 -0.0004742519 -0.00048859 0.00019431992 -0.0008567806
0.0010027345 -0.0012743388 -0.0010378304 -0.0005472479 0.00074502715 -0.0002368442 0.00038981184 0.0004337534
0.0009176399 0.00075898384 -0.0020070167 -0.0006826629 1.4329866e-05 0.00072685676 0.00027905696 -0.00042323943
2.6613057e-05 -0.0006463235 -0.0012577088 0.00045234058 -0.0006148421 0.0021392035 -0.00079129357 0.00097126234
-0.00026349263 0.0005946308 0.0008722794 -0.00050989824 -0.0008308622 -0.0018582024 -0.0023213993 0.002794934
0.0006045345 -0.00029890228 6.923973e-05 0.00037434837 9.174183e-05 -0.00016671089 0.0010028864 -0.0004814388
-0.0006516261 0.00091159466 -0.00063435873 -0.0019302052 -0.00014991942 0.0006711699 2.1701107e-06 -0.0015151964
00000000: 4853 fcb8 d2ce e23a 9241 8b3a 4383 51b9
00000010: f49f f339 9d48 60b9 c785 c7ba 6739 36ba
00000020: 1e61 8739 508a 563a b7eb b637 df9b 9139
00000030: a545 0cba 7f98 3dba 8929 e4ba f290 9939
00000040: 0e86 5a38 d1d0 e6b9 bc7f c4ba b193 0539
00000050: f6fb 3b3a 50ce 0dba 8636 91b8 36ce e439
00000060: 2ebb 743a 805b 5f38 977a c1ba 4a27 6cba
00000070: 442f 7cba 7b21 b1ba a55e 9a39 2ffa acb9
00000080: 054b 10ba a060 96b8 3c68 feba 790e 9eb8
00000090: 8af3 adba 9982 5f3a c1d5 d4b9 3db7 583a
000000a0: df97 063b 35bc 763a 85d0 3e3a 81a0 aaba
000000b0: 4127 abba 2c97 223a f0db 9eba 704a 8839
000000c0: 42fa 073a 5d80 8cba 9e64 59b9 6935 e2ba
000000d0: 803c d43a 8e95 c1ba a988 0a3a 4290 0e3a
000000e0: aeb4 06b9 8b0b ed3a 91e8 9039 6759 05ba
000000f0: 91b0 00ba 174d 13ba 1003 2fba 47fa cfb9
00000100: 9c85 8139 1889 8dba 5b0c 6fba 3c5d cfba
00000110: e186 16bb f59b 4e3a fa1d c53a 7248 bb3a
00000120: dffe a8ba 5463 87ba a14c eb39 4727 6939
00000130: 5007 e739 de43 143a ce55 3c3a 12e3 f33a
00000140: 8a89 47bb a29a 193b 564f 9f3a c623 903a
00000150: 2124 21bb e849 5a3a b9bf b53a b992 c039
00000160: 9aed cbba e4bb d439 3ce8 043b be96 783a
00000170: 405c fc3a cafd 8a39 6b50 d23a 77f1 b239
00000180: e25d c639 8113 073b fa8f e33a 0bbc 47bb
00000190: cef6 853a 23b5 08bb 200f 043a 50d1 76ba
000001a0: 714e 59ba 0780 b8ba ae95 43ba 6727 163b
000001b0: 375c 083b 21ec 513b 3abc 033b dd4d a7ba
000001c0: f3e3 08bb 1eb8 d839 24e6 a83a 062b e13a
000001d0: 0108 2bb8 aa61 3137 9c21 e339 ac85 b83a
000001e0: 62fa 5a3a 7d7e 2bba 8f32 023b 4939 a43a
000001f0: 587f 443b 73a3 f3ba a155 073b f3e9 d73a
00000200: 997f 8d3a edb8 c6ba c8d2 52ba b1ee 3a3a
00000210: bdcd f1b9 b19a 2d3a a2bc 233b 82d0 983a
00000220: 37bd 2f39 5ef1 d8b9 f128 363a 72ee 063a
00000230: 7c95 113a 6067 a7b9 e5a3 f339 52b6 d73a
00000240: c9c7 73ba 00f1 0b3b 1c0a 1d3a 14ab 5338
00000250: 50bf 02bb 8d07 203b 9ed5 c839 b8ee 523a
00000260: 35a5 bfba 8698 d3b8 7512 e43a fc7b 643a
00000270: 8e4a 383a f5dc 213a a128 1338 0fe0 14ba
00000280: 4187 60ba b779 0cb9 14b4 233a db90 c6ba
00000290: 9fa8 ce3a 6a2b 24ba 62c2 8039 4b20 f4ba
000002a0: faf2 83b9 b122 e938 af24 ccb9 77eb 9f3a
000002b0: 664d 813a a717 f53a ba0f 9d3a b65f d9ba
000002c0: 88e8 c9b9 b2a2 8d3a 4600 d73a 76fd 063b
000002d0: 4311 06b8 8465 f839 3d7a e3b8 f22a a63a
000002e0: f3ca a03a fb1b 23ba ee1e d03a 24fd 9639
000002f0: c5e5 253a 561b 2c39 25a9 58b9 8275 163a
00000300: a7c4 51ba bcc5 9f3a 009e 5f3a 9dbe 4b3a
00000310: f7ed a53a 49af b7ba 0cf6 3ab9 ca8b 53b9
00000320: f130 4b3a 7644 f039 78a9 88b9 2fcf 053a
00000330: 03a5 f8b9 b814 00ba 5bc2 4b39 9399 60ba
00000340: 306e 833a b707 a7ba cf07 88ba 2f75 0fba
00000350: ed4d 433a 6159 78b9 a95f cc39 6569 e339
00000360: c58d 703a 8bf6 463a 2788 03bb bbf4 32ba
00000370: 4e6a 7037 888a 3e3a 644e 9239 3ce6 ddb9
00000380: 1b3f df37 096e 29ba b4d9 a4ba 2028 ed39
00000390: 5b2d 21ba e131 0c3b d06e 4fba 509c 7e3a
000003a0: 6225 8ab9 ffe0 1b3a aea9 643a b1aa 05ba
000003b0: 38ce 59ba ed8e f3ba 9e22 18bb 362b 373b
000003c0: a079 1e3a fcb5 9cb9 cc34 9138 3044 c439
000003d0: 8565 c038 1dcf 2eb9 4973 833a 9f69 fcb9
000003e0: e3d1 2aba 15f8 6e3a 184b 26ba f0fe fcba
000003f0: b033 1db9 73f1 2f3a 38a2 1136 8e99 c6ba

action_net.bias f4 [200]
0.0007712036 -0.0018278306 -0.0013449445 0.0011495091 -0.00013964043 0.0010383081 -2.3830313e-05 -0.0006942254
0.0003406083 0.00077364757 0.00091351743 0.0004103504 -0.001746115 0.0006644511 -0.0010177203 0.00096562796
-0.0027684036 0.0014183319 0.0006248686 0.00060282875 0.0013660411 -7.683663e-05 -0.0021006714 -0.0013685393
0.0021441071 -0.0018486332 0.0018299968 0.00034063082 -0.0010773024 0.00080764666 -0.00053172704 0.0005874145
0.0032159758 -0.00020484984 0.0012138148 0.0006279699 0.002194011 -0.00077504886 -0.0025114913 -0.003877218
0.0009645601 -0.0001000807 -0.000836214 0.000114407325 0.00087375555 -0.0016362072 0.000914289 0.0012170637
-0.0010114558 -0.00042565842 0.0008421913 0.00067942846 0.0006022089 0.0005974341 -0.0007552483 -0.0019830472
0.00078654697 -0.00024410593 -0.0003392811 -0.00015795608 0.00039263992 0.00028088185 0.0019604282 -8.581075e-05
-0.0012998311 0.002098769 0.00043545789 -0.0011182729 -0.00085037365 -0.0019106062 0.0021625229 0.0020827483
-0.0011768786 -0.00030471873 -0.00084098004 0.0016397828 0.00015634787 -0.0023546703 -0.00073332596 -0.0006687273
-0.00063255854 -0.0016768377 -0.0008828134 0.0023667833 -0.0015550988 0.0013912322 -0.0011966014 0.00048388646
-0.00020970589 0.0018594732 0.0011105123 0.001050611 -0.0009023403 -0.000557615 -0.0018753281 0.0022527955
0.0024486706 -0.0013665467 -0.0020149918 -0.00012210631 0.0014159655 -0.0010290002 -0.00034708387 -0.0005291295
-0.0027329766 0.0026081556 0.0013816984 -0.0001994356 -0.0011479248 0.00055005745 0.0005803121 -0.00010489597
0.0025300505 -0.0013541449 -0.0018930933 -0.0017687636 0.0021200345 -0.0023005025 0.0015669644 0.0004930832
8.008504e-05 -0.00025129723 -0.00062949426 0.00021539316 -0.0022922733 0.00083820045 0.002170688 0.0013064486
-0.0017334452 0.00020718764 0.0008882178 0.0014971413 -0.0027119985 -0.00013107147 0.00095451786 0.0004408147
0.00012394167 -0.00034967673 -0.0013031948 0.00058644806 0.00056953507 0.0014825283 -0.00016246113 -0.00022058067
0.0008312641 0.0021297953 0.0008877226 -0.0007366782 -0.0015916392 -0.0031767406 -0.0013365151 0.0003410605
0.0024384283 0.0007143224 -0.0021660847 -0.0015261672 -0.00044008216 0.0013356624 0.0013585974 -0.0006968562
0.0016686363 -0.0017800253 5.4078075e-05 0.00021991778 -0.0009480942 0.0009568123 0.0011282437 0.0015128381
0.00012760122 -0.0029159714 -0.0005939381 -0.0009964238 0.00133136 0.0022940352 -0.0013274136 0.0018309755
0.00021000026 0.0016019734 0.00010425775 -0.004398569 0.0019226829 -0.0018624702 0.0012468419 -0.00033106332
-0.00054536347 -0.000949086 0.00032766655 -0.00058325706 -0.0013424502 0.0021064787 -0.00095838256 5.7503177e-05
0.0012076914 -0.00016990666 -0.001147901 0.00094073353 0.0009039305 -0.0040796157 0.0021517787 0.0012073148
00000000: 992a 4a3a d193 efba d948 b0ba 20ab 963a
00000010: 716c 12b9 d717 883a 35e7 c7b7 aefc 35ba
00000020: ac93 b239 9cce 4a3a 1e79 6f3a 4c24 d739
00000030: e6dd e4ba 8f2e 2e3a 0765 85ba 3222 7d3a
00000040: 1b6e 35bb 52e7 b93a 39ce 233a 2707 1e3a
00000050: bc0c b33a 5a23 a1b8 6bab 09bb 8f60 b3ba
00000060: 2684 0c3b d64d f2ba 81dc ef3a b296 b239
00000070: 4534 8dba 40b8 533a 9963 0bba b8fc 193a
00000080: 1fc3 523b f6cc 56b9 de18 9f3a 599e 243a
00000090: 65c9 0f3b a62c 4bba d597 24bb ed18 7ebb
000000a0: 88da 7c3a 6be2 d1b8 5f35 5bba f7ed ef38
000000b0: be0c 653a 0176 d6ba e5ac 6f3a e285 9f3a
000000c0: d392 84ba e82a dfb9 80c6 5c3a ac1b 323a
000000d0: 8edd 1d3a 209d 1c3a dbfb 45ba 03f6 01bb
000000e0: 4630 4e3a b0f6 7fb9 8ae1 b1b9 03a1 25b9
000000f0: 3ddb cd39 5343 9339 877a 003b 4cf5 b3b8
00000100: 185f aaba 808b 093b 2b4e e439 0393 92ba
00000110: 9ceb 5eba 4e6d faba 1db9 0d3b b87e 083b
00000120: 7e41 9aba a8c2 9fb9 3775 5cba fbed d63a
00000130: 50f1 2339 d050 1abb ac3c 40ba 884d 2fba
00000140: 49d2 25ba 56c9 dbba 9b6c 67ba 091c 1b3b
00000150: 75d4 cbba 025a b63a 48d7 9cba 24b2 fd39
00000160: 7fe4 5bb9 91b9 f33a 9c8e 913a a8b4 893a
00000170: 088b 6cba e92c 12ba 92cd f5ba a3a3 133b
00000180: e079 203b b31d b3ba f40d 04bb aa09 00b9
00000190: eb97 b93a 84df 86ba cff8 b5b9 48b5 0aba
000001a0: bd1b 33bb 97ed 2a3b 1b1a b53a 961f 51b9
000001b0: f775 96ba bb31 103a 1620 183a 98fb dbb8
000001c0: 34cf 253b 907d b1ba ac21 f8ba dcd5 e7ba
000001d0: 47f0 0a3b 07c4 16bb 9a62 cd3a 4142 013a
000001e0: 54f3 a738 8bc0 83b9 a504 25ba 29db 6139
000001f0: f739 16bb aeba 5b3a 1a42 0e3b 243d ab3a
00000200: c534 e3ba 8240 5939 4ad7 683a ba3b c43a
00000210: c9bb 31bb 3b70 09b9 9c38 7a3a 261d e739
00000220: 57f6 0139 d154 b7b9 f6cf aaba ddbb 193a
00000230: da4c 153a 6551 c23a 545a 2ab9 ac4b 67b9
00000240: 30e9 593a 0994 0b3b 0eb6 683a a31d 41ba
00000250: 8d9e d0ba dd30 50bb 012e afba 5ed0 b239
00000260: 0ace 1f3b 5d41 3b3a dff4 0dbb ac09 c8ba
00000270: d4ba e6b9 6511 af3a f712 b23a 3aad 36ba
00000280: 25b6 da3a bd4f e9ba e4d1 6238 bb99 6639
00000290: 8689 78ba 96d2 7a3a 94e1 933a 6c4a c63a
000002a0: b1cc 0539 e219 3fbb 83b2 1bba 6f9a 82ba
000002b0: 0781 ae3a 8657 163b 9cfc adba 58fd ef3a
000002c0: 8433 5c39 4ff9 d13a f4a4 da38 df21 90bb
000002d0: 8802 fc3a 211e f4ba 126d a33a 9192 adb9
000002e0: b9f6 0eba 15cc 78ba a9ca ab39 b8e5 18ba
000002f0: 27f5 afba d90c 0a3b f73b 7bba 912f 7138
00000300: 664b 9e3a f928 32b9 2b75 96ba 8f9b 763a
00000310: c0f5 6c3a 4cae 85bb db04 0d3b c33e 9e3a

value_net.weight f4 [1, 64]
0.12575166 0.16596888 -0.12350589 -0.15502828 0.24884513 0.13028558 -0.19626361 0.17832355
-0.22897588 0.18496917 0.30581057 -0.26769373 -0.18513174 0.12821916 0.2508113 -0.101764314
-0.27383548 -0.41962817 0.20283216 -0.3084201 -0.34319422 0.28057438 -0.10837142 -0.14337006
-0.17239743 0.29335308 -0.10793039 -0.14777833 -0.13063003 -0.29311472 0.22174306 0.32227385
0.19971468 0.108205736 0.15733577 -0.12975945 -0.11765551 0.22457995 0.2471159 -0.15388043
-0.19347088 -0.16674213 -0.2598878 0.1113136 0.12054502 -0.19203205 -0.09040634 0.104766786
-0.09364456 -0.22340773 0.22237559 -0.19228011 -0.14710541 -0.14869097 -0.2684062 -0.29904342
0.12671342 0.046630036 0.22055675 -0.34182972 0.2714427 -0.11579692 0.214402 -0.2154967
00000000: 0bc5 003e bff3 293e a8f0 fcbd bcbf 1ebe
00000010: 42d1 7e3e 9569 053e 54f9 48be 739a 363e
00000020: a778 6abe 8f68 3d3e 3493 9c3e 270f 89be
00000030: 2d93 3dbe e24b 033e 576a 803e cf69 d0bd
00000040: 2a34 8cbe 81d9 d6be 3cb3 4f3e 3de9 9dbe
00000050: 27b7 afbe 72a7 8f3e d6f1 ddbd 9acf 12be
00000060: f488 30be 6032 963e 9c0a ddbd 3453 17be
00000070: e1c3 05be 2213 96be 9d10 633e 1401 a53e
00000080: 0182 4c3e f89a dd3d a11c 213e a9df 04be
00000090: 5ff5 f0bd 49f8 653e f30b 7d3e d592 1dbe
000000a0: 3b1d 46be 73be 2abe 0410 85be 62f8 e33d
000000b0: 4fe0 f63d 0da4 44be f626 b9bd f88f d63d
000000c0: b8c8 bfbd ffc4 64be 6db6 633e 14e5 44be
000000d0: cda2 16be 7242 18be 8a6c 89be 381c 99be
000000e0: 2ac1 013e 23ff 3e3d a1d9 613e 4e04 afbe
000000f0: 8afa 8a3e f026 edbd 338c 5b3e 2bab 5cbe
