fixed_power_ver/rb_classifier.pt (torch, 25860 bytes, 6 tensors)

net.0.weight f4 [64, 9]
00000000: 36cb 66bd 565f f23c 0d8e 6dbd 7b0b ed3d
00000010: a036 b73d 06cf 0dbe 9449 033e 4c55 073c
00000020: 9c5b 40be 64e0 9fbe f199 9bbe 4684 a4bd
00000030: 2024 4a3e f134 433d 5739 b03e ed9a 2b3e
00000040: b4e9 b5bb f307 8e3e d491 dd3d c08f cc3c
00000050: d3f7 803e 73c4 17be 4ce0 94be e3d7 24be
00000060: d8c0 73be b0db ffbc 1665 233e 42ee dc3d
00000070: adb2 4cbe 1996 58be 4dae 8e3c 643d 8f3e
00000080: bb11 7e3e e5e3 3f3d f966 4f3e 804e 863e
00000090: 1ed2 473e 0481 57bd 9679 5a3e 387a 8b3e
000000a0: 7a36 d93c bb8a 723d cc20 6ebd 13d0 1fbc
000000b0: e7c9 b4bd a3e5 833e be63 13bd a3cb 623e
000000c0: 3c45 593d 8a15 823e 5e63 c5be 73c9 633e
000000d0: 3ab7 003e 37b0 9ebe 434b 49be 3b6f 9dbe
000000e0: b876 9a3c 3b5b eabd f0c9 9e3e d4b9 aabe
000000f0: 49af 4b3e bbb9 80be a753 4f3e d2ef 463e
00000100: 0320 8abe e1dd a53e 0675 c2bd a66d 4bbe
00000110: 3175 8d3e 7a41 643e 7178 8d3e c565 a93e
00000120: 02de 2d3e 6028 e1bd b259 9cbe 923d 203e
00000130: 16dd abbd 68f3 2ebe 40df c1bb 4ceb a13d
00000140: a8cb 12be 0b25 b43e 3af5 64be d237 5cbe
00000150: 716e 83be d0ab 7d3e 0a40 12be b8f2 5cbe
00000160: d984 b0be 13c9 023e fe9b 12be 4093 ac3d
00000170: 4ae1 2b3e 909f 7ebe 2e23 7bbe bb47 1abe
00000180: e696 103e 8b6d 61be 1379 5dbe 5aaa a1be
00000190: eaa3 003e 9b44 27be 2cb8 e8bd 6b17 07be
000001a0: 40d7 473d 9830 773d 8a82 283e e5cc a23e
000001b0: eb0f 63be c625 0dbe 0275 383e ce8a 5e3e
000001c0: c48d 87bd 314e a63e 7664 f5bd b63c b4bd
000001d0: f128 873e d026 9ebe 4a8f 743e 13c2 66be
000001e0: fce8 883d 468c 68be 0291 1e3e 005c b2bc
000001f0: 9058 96be aa4b 0e3e 640d 863e 7a34 1cbc
00000200: 9ccf 5e3e f44e 3b3e 167b 4c3d 5c07 a3be
00000210: 84cd e4bd 9417 90be 522a f33d bc81 aabd
00000220: 25fa 9e3e 0817 3cbd e428 923d c0be 71bd
00000230: 1231 4b3e d346 9fbe 24a7 bd3d 1657 36be
00000240: 0092 78bd 9e6a 5e3e 163d 523e 1685 16be
00000250: f819 22bd 20fd 39be c6fb fdbd 2891 88be
00000260: 66ab 23be b227 be3e 9cbb 2dbe b8bf 88be
00000270: 5c45 85bc 4ee1 eb3d 63b1 253e c32f 8c3e
00000280: b67d f53d 7355 883b c091 a13b e0de 18be
00000290: c87a 2abd 8229 3e3e b8a8 5fbd 6ebf 7bbe
000002a0: 58b4 45bd 00cd bc3c 5803 93be f857 9ebe
000002b0: 0048 43bc 120a 373e 189c 77bd 6c98 ecbd
000002c0: fe38 7fbe bc35 d7bd 848d 87be 6f48 a2be
000002d0: 18e0 02be 90fc f4bc 0ea1 00be 5ab2 663e
000002e0: 7f76 91be 5abc 2e3e 0070 1cbd 4c2d 893d
000002f0: ecb2 febd 8e9b 0cbe 1885 83be 2a9e 503e
00000300: daae 693e ee12 99be 1063 a53d 93c6 983e
00000310: 72e3 7f3e a02e 053d cd1c ce3e 364c da3d
00000320: 70e2 acbe 8bf3 54be bd16 643e 4d62 1f3d
00000330: c9b6 bd3d fd39 69bd 1243 64be 6294 113e
00000340: 3025 80be c56d a03e b0c6 9dbe de7c 81be
00000350: 231b 5ebe cab7 303e 9072 e73c b6cc 3d3e
00000360: 1169 26be 4cb1 5e3e e58b 233e 53cf ee3d
00000370: c807 6d3e fe0b a1be 9528 23be 4625 65bd
00000380: f2e6 1e3d ace9 b8bd f93f 933e d091 853c
00000390: 28e5 3a3d d360 14be fcd6 f5bd 72ce 603e
000003a0: da72 313e 9668 6abe 8cc4 9dbe d373 82be
000003b0: 8e04 143e a64d 54be 0bbb a8be 8005 83bd
000003c0: 1659 613e f0e1 c6bd 427e 9fbe 79fa 07be
000003d0: b3d0 613e fbf5 98be 02d8 9e3e 8293 be3d
000003e0: 6c32 0c3e b62a 5a3e 00e9 f6bd af0f 83bd
000003f0: 406d 7ebe d8f9 0f3e f91c b43d 1f31 843e
-0.05634614 0.029586475 -0.0579968 0.11574455 0.08945966 -0.13848504 0.12821037 0.008260082
-0.18784946 -0.31225884 -0.30390885 -0.08033042 0.19740343 0.04765791 0.34418747 0.16758318
-0.005551541 0.2774044 0.1081883 0.02497089 0.25189075 -0.14821033 -0.29077375 -0.16097979
-0.23804033 -0.031232685 0.1595653 0.107876316 -0.19990034 -0.21151008 0.017417097 0.27976525
0.24811451 0.046848197 0.20254125 0.26231766 0.19513747 -0.052613273 0.21335444 0.27241683
0.026515234 0.059214335 -0.058136746 -0.009754199 -0.08827572 0.25761136 -0.035983793 0.22147994
0.053044543 0.25407058 -0.38552374 0.22244816 0.12569895 -0.30993816 -0.19657616 -0.30748925
0.018855438 -0.11443182 0.3101344 -0.333449 0.19891085 -0.251417 0.20246755 0.19427422
-0.26977548 0.32395843 -0.09494977 -0.19866046 0.27628472 0.22290602 0.27630952 0.33085456
0.1697922 -0.10994029 -0.30537182 0.15648487 -0.08391778 -0.1708504 -0.005916506 0.079062074
-0.14335501 0.35184512 -0.22359172 -0.21505669 -0.25670198 0.24772573 -0.14282241 -0.21576965
-0.34476355 0.12772016 -0.14317319 0.08426523 0.1678516 -0.24865556 -0.24525139 -0.15066426
0.14120063 -0.22014444 -0.21628217 -0.3157528 0.12562528 -0.16334765 -0.11363253 -0.13192527
0.048789263 0.060349077 0.16456047 0.31796947 -0.22174041 -0.1378394 0.18013385 0.21732637
-0.066188365 0.3248153 -0.11982052 -0.08800642 0.26398423 -0.30888987 0.23882785 -0.22534971
0.06685063 -0.2270976 0.15485004 -0.021772385 -0.29364443 0.13896051 0.2618209 -0.009533996
0.21758884 0.18291837 0.04992207 -0.31841552 -0.111720115 -0.2814299 0.11873306 -0.08325526
0.3105022 -0.0459204 0.071367055 -0.059019804 0.19842938 -0.31108722 0.09260395 -0.17806658
-0.06068611 0.21720359 0.20531115 -0.14699206 -0.039575547 -0.18162966 -0.124015376 -0.26673245
-0.15983352 0.3713966 -0.16966099 -0.2670877 -0.016268425 0.11517583 0.16180949 0.2738019
0.11986868 0.004160577 0.004930705 -0.1492877 -0.041621 0.18570521 -0.054604262 -0.24584743
-0.048267692 0.02304697 -0.2871349 -0.3092649 -0.011919022 0.17874935 -0.060451597 -0.1155251
-0.24924085 -0.10508296 -0.26475155 -0.31695887 -0.12780797 -0.029905587 -0.12561437 0.22528973
-0.28410718 0.17064038 -0.03819275 0.06698093 -0.124364704 -0.13731214 -0.2568748 0.20372835
0.22820607 -0.29897255 0.08075535 0.29839 0.24989107 0.03251517 0.40256348 0.10659067
-0.33766508 -0.2079603 0.22274299 0.038912106 0.09263379 -0.056940068 -0.2229121 0.1421676
-0.25028372 0.31333748 -0.3081565 -0.2529058 -0.2169004 0.1725761 0.02825287 0.18535122
-0.16251017 0.21747321 0.15971334 0.11660638 0.231475 -0.31454462 -0.1593345 -0.05594375
0.038794465 -0.090289444 0.28759745 0.01630488 0.045628697 -0.1449006 -0.12003896 0.21953753
0.17328969 -0.22891459 -0.30814016 -0.25478992 0.14454862 -0.20732746 -0.32955202 -0.063975334
0.2200664 -0.09711063 -0.31151015 -0.13279141 0.22052269 -0.29875168 0.31024176 0.09305479
0.1369111 0.21305355 -0.1205616 -0.06399476 -0.24846363 0.14060152 0.087945886 0.25818726

net.0.bias f4 [64]
00000000: d7f7 9ebe 56e1 d83c 301c cbbc 085f cdbd
00000010: 4f5f 05be 92fb bfbe d22f c93d 7e02 56be
00000020: 2a67 383e c354 643e cf1e 8b3e 4e07 383e
00000030: a6f5 31be c0b4 da3c 93c9 01be 17e0 8bbe
00000040: 0215 463e 0bed 96bd 00eb 8cbc 8e1e 073e
00000050: 3e71 42be c349 a9be d2c9 6cbc d85d 6abe
00000060: 97a7 c2bd 4c41 cd3d c045 f33d dc25 aebd
00000070: d880 acbe 8402 c23d 60a3 77be 5b41 46be
00000080: cac7 453e ab3a 88be 5721 c03d c056 ea3c
00000090: a784 9ebe b383 6abe 58e2 7cbe da33 a9be
000000a0: 7a3d 0b3e b79b a1be be53 99be 53f0 b9bd
000000b0: d8aa 63be d86c 0a3d 40e6 1cbe 62be 23be
000000c0: a5dd 423d afe8 42be b837 8dbe a308 423d
000000d0: 38f8 49bd 5823 0c3e 6080 54bc 00bc 18bc
000000e0: 9e5b 82be 80b7 13bd 20a7 d63d f08b d4bc
000000f0: 0000 9536 a324 7fbe e63d 2dbe 0060 bd39
-0.31048462 0.026474636 -0.024793714 -0.100278914 -0.13024639 -0.3749662 0.09823574 -0.20899388
0.18008104 0.22297959 0.27171943 0.17971537 -0.17378864 0.026697516 -0.1267455 -0.27319404
0.19343951 -0.07369431 -0.0172019 0.1319525 -0.18988511 -0.33064088 -0.014452415 -0.22887361
-0.095046215 0.1002222 0.11878538 -0.08503315 -0.3369205 0.09473136 -0.24183416 -0.19360869
0.19314495 -0.2660726 0.09381359 0.028605819 -0.3096058 -0.22901802 -0.24695718 -0.33047372
0.1359767 -0.31564113 -0.29946703 -0.09079041 -0.2223314 0.033795208 -0.15322208 -0.15990594
0.047574658 -0.19034074 -0.27581573 0.047371518 -0.049308985 0.13685358 -0.01297006 -0.009322166
-0.25460523 -0.03606367 0.10481095 -0.025945634 4.440546e-06 -0.2491632 -0.16918144 0.00036120415

net.2.weight f4 [64, 64]
00000000: 0bbb 263d 09f3 4abe c01d c2bb 8f9a 373d
00000010: 9180 dfbc 0ae0 ebbd 58ab c03d e8aa 193d
00000020: 109d 59bd ad8a 563d 5878 b53d 9004 9fbc
00000030: 1c13 4cbd fa72 f0bd 1664 84bd 2042 0fbc
00000040: d435 b6bd 80c3 673d 8081 1b3b 8ad4 a83d
00000050: 005a 783a 2260 b2bd 9fb3 b03d c8ef 873c
00000060: b65a a53b 66c1 d83d c8f9 efbc 6417 52bd
00000070: 0d5d adbd 78a5 12bd 8ca8 9dbd 80fb fd3b
00000080: a660 983c 6cbe abbd 3f3f 91bd 206e a5bc
00000090: 9dd3 1f3d 9d74 e73d 700d 96bc cc26 783d
000000a0: 66f9 d2bd 3c5f 7a3d 947a 62bd f637 033e
000000b0: 64e9 7b3d 201e 3b3d 27a8 f43c a7dc e6bc
000000c0: 1832 bcbc 141c 723c eb69 903c 0a2b 533d
000000d0: f844 ffbd 35d5 cb3d 845e 003d 1867 fa3d
000000e0: 85ea 9cbc 90ff 35bd d8e4 4dbd e04f 40bc
000000f0: be91 edbd d508 fa3c 9456 cb3d 0e80 f13d
00000100: 46a1 ab3c 950b 86bd a0df 8dbc 270b 0a3c
00000110: f60f 05bd 6cd7 d5bd 3a5f b4bc 40f4 0a3b
00000120: 3015 c63d cfe6 8b3d d422 683d 6066 c03c
00000130: 80a5 c03d e835 aabc 8858 713d 2013 0d3c
00000140: 343f 953d 7377 6a3c 90eb 093c b420 75bd
00000150: b6bf fe3d b075 583c 3d2c 66bd 98e0 99bc
00000160: dd48 513b 9065 183c ca77 b3bd 3533 f0bd
00000170: d3fa e53d 30ae 603d 32ab 84bd bc7e 6c3d
00000180: dc70 02bb 80ad 8f3b ff68 febd b482 0f3d
00000190: a037 563d 9eda ab3c 0082 5cbc 9c1e 17bd
000001a0: 56a2 153d 50fa a03d 0af5 b0bd 6d8c 1ebb
000001b0: fa33 a53d 2436 1dbd d3d1 95bd c937 4a3d
000001c0: b9b3 9f3d 8208 18bc b63c 56bd 9077 683d
000001d0: d2d0 d8bd f056 40bd c2c8 dbbd 706f 523d
000001e0: 2c37 38bc 2c59 d33d 206e f1bd 74c0 b9bd
000001f0: a082 1d3c 76fc 85bd 0e75 e1bd 7c03 4fbd
00000200: 4c0d 9ebd a4c0 b8bd 0431 1b3d fc17 d1bd
00000210: 42ec e0bd 9834 07bd 6cbd fdbd 1257 8f3d
00000220: 4080 28bb b82b a1bd 406e d73c e064 c23c
00000230: 6668 ba3d f0ab f8bd 0c11 1dbd 68df 96bd
00000240: 0ae4 85bd 24ca 9ebd fc71 cdbd 940a e2bd
00000250: 2cfc 943d 1a8b d13d 7e3b bb3d 9020 5cbc
00000260: 70f8 583d a883 7f3d 2ea5 c4bd c0f5 bfbb
00000270: 9a7f 973d 361f a5bd 40b3 bc3d 08c7 773d
00000280: 6861 413d 3c89 29bd a8c8 7ebd 8064 733b
00000290: ea06 cdbd 4c8e 4fbd 00f8 f0b9 40f6 64bd
000002a0: 1868 f13c 0090 3a38 d823 babc 9008 ce3d
000002b0: e2e0 913d a00b dbbc fc4e 28bd c4c7 a43d
000002c0: 0cd3 8fbd dac0 b6bd 10f6 053c 2455 543d
000002d0: e8f9 a43c 080b 40bd 6af9 9f3d f0f8 8f3d
000002e0: 8a2b e1bd f05c 21bd 184d ac3c d8df da3c
000002f0: 4841 103d f8c5 97bd 4cff ebbd 6ccf b63d
00000300: 0028 a1ba f69f ca3d 00a8 ef39 0095 1dbd
00000310: 84ad 08bd d800 5bbd 800a 71bb 38a4 543d
00000320: 4c68 7abd e847 f1bd 583a 1cbd 706e 9cbc
00000330: 2028 babb 7011 4f3c 3c91 783d bac2 96bd
00000340: e048 a23d ce7e 91bd 86d6 cb3d e485 9b3d
00000350: c048 16bd 96e5 89bd 58c4 5b3d 1edf bcbd
00000360: 3c96 843d a807 2bbd 42e0 a43d 96e3 d13d
00000370: 8093 963a 3ea0 bdbd 0074 54b9 1634 ae3d
00000380: a0bc d93c 3aaa fbbd 1085 5b3c bacb e63d
00000390: 587d 5abd 9a7b 933d 90db 463d f837 f93c
000003a0: e0da f2bb 9c12 79bd 7060 713c a800 f7bd
000003b0: 9697 c13d 98f0 863c b464 edbd 68fd 8fbd
000003c0: 72fc 9a3d 9878 323d 5c49 543d da25 c33d
000003d0: a8db c73c 96cc ef3d 34dc 113d 3cf1 213d
000003e0: 2012 c63b 6e7a df3d 08ec 533d 30ba dfbc
000003f0: 5054 583c e68b debd e0ed 72bd 8a7e c1bd
0.04070572 -0.19819273 -0.0059239566 0.044825133 -0.027282985 -0.115173414 0.09407681 0.037516505
-0.053128302 0.052378345 0.088608444 -0.019411355 -0.04982291 -0.1174068 -0.064644024 -0.008743793
-0.08896986 0.056582928 0.002372831 0.082436636 0.000947386 -0.08709742 0.0862801 0.016593829
0.005046214 0.10583763 -0.02929391 -0.05129184 -0.08465014 -0.035802335 -0.076981634 0.0077509284
0.018600773 -0.083859295 -0.07092141 -0.020194113 0.03902017 0.11301539 -0.018316954 0.060583875
-0.10301475 0.06112598 -0.05529268 0.12814316 0.061501876 0.045683026 0.029865338 -0.028181387
-0.022973105 0.014777202 0.01762863 0.051554717 -0.124643266 0.099527754 0.031340137 0.12226695
-0.019154796 -0.044433177 -0.05026707 -0.011737794 -0.11600064 0.03052179 0.09928623 0.117920026
0.020950925 -0.06545178 -0.017318547 0.0084255105 -0.032485925 -0.10441479 -0.022018064 0.0021202713
0.0967201 0.068311326 0.05667384 0.023486316 0.094065666 -0.020777658 0.05892232 0.008610517
0.07287446 0.0143107055 0.008417979 -0.05984564 0.1243891 0.013211653 -0.056194533 -0.018783852
0.00319343 0.009301558 -0.08763082 -0.11728517 0.112294815 0.05485362 -0.064779654 0.05773805
-0.0019903695 0.0043846965 -0.1242237 0.035036758 0.052299142 0.020978268 -0.013458729 -0.036894426
0.03653177 0.07860243 -0.086404875 -0.0024192587 0.08066554 -0.03838171 -0.073154114 0.049369607
0.07797951 -0.009279372 -0.052303992 0.05675465 -0.10586704 -0.04695791 -0.10731651 0.051375806
-0.011243623 0.103197426 -0.11788583 -0.09069911 0.009613663 -0.06542294 -0.110086545 -0.050540432
-0.0771738 -0.09021118 0.03788854 -0.10209653 -0.109825626 -0.03300914 -0.12389645 0.06999029
-0.0025711209 -0.07869667 0.026297688 0.023729742 0.09101944 -0.121421695 -0.038346335 -0.0736683
-0.065376356 -0.07753399 -0.100315064 -0.11037174 0.072746605 0.1023161 0.091422066 -0.013435498
0.052971303 0.062381417 -0.09601818 -0.005858153 0.07397385 -0.08062594 0.09213877 0.060492545
0.047212034 -0.041390643 -0.06220308 0.003713876 -0.100110844 -0.050672814 -0.00045961142 -0.055898905
0.029468581 4.4479966e-05 -0.02272217 0.10060227 0.07122971 -0.026738942 -0.04109095 0.08045915
-0.07022676 -0.08923502 0.008176342 0.05183901 0.020138696 -0.04688552 0.07811244 0.07029903
-0.109946325 -0.039395273 0.021032855 0.026718065 0.035218507 -0.074108064 -0.115233034 0.08926281
-0.0012295246 0.098937914 0.00045710802 -0.038472176 -0.033368602 -0.0534676 -0.003677994 0.051914424
-0.06113462 -0.11781293 -0.03814158 -0.01909563 -0.005681053 0.012638435 0.06068538 -0.0736136
0.07924056 -0.07104264 0.099530265 0.07593897 -0.036690474 -0.06733243 0.053654045 -0.09222244
0.064739674 -0.04175535 0.08050586 0.10248487 0.001148805 -0.092590794 -0.00020261109 0.08506028
0.026579201 -0.122883275 0.013398424 0.112693265 -0.053342193 0.072013095 0.048549235 0.030422196
-0.007411346 -0.060808763 0.014732465 -0.12060672 0.09452741 0.016472146 -0.11591473 -0.07030755
0.07567681 0.04357204 0.051827773 0.09528704 0.024396732 0.117089435 0.035610393 0.0395367
0.006044641 0.109120235 0.05173877 -0.02731046 0.013203695 -0.10866527 -0.059308887 -0.094479635

net.2.bias f4 [64]
00000000: b77f ad3d 2ca5 a63d 90d2 9f3c c035 83bc
00000010: 60ff 04bc 40b9 2bb8 00e9 763b 1614 d5bd
00000020: 21b9 803d 1d4e 24bd 73d5 06bd 51d8 37bd
00000030: 9b9d 6bbd c8ac 68bd 18bb b63c 80d9 b43b
00000040: a1dd 9d3d 565f c53c 41c3 58bd b3a0 6ebd
00000050: 33be a0bd f4bd dbbd 9478 9abd 8a13 8dbd
00000060: 5fb6 183d c21a 08bc 1cb5 d3bd 00dc 463b
00000070: c067 ebbb aaa3 85bd b153 cfbd 3091 ac3a
00000080: f14d 55bd 3e55 a73d 44a6 0dbd 64e0 bf3d
00000090: f3f9 c3bc e828 393d 6a57 8abd 4576 72bc
000000a0: 1889 c5bc 6aab 66bd e607 ffbb 4a9a 5bbb
000000b0: b409 f9bd b408 12bd c755 d23d e44c 7dbd
000000c0: 7380 b93d c430 283d 4847 4d3d 889b cbbc
000000d0: 566e 86bd bfea 93bd f817 163c f8f3 b63c
000000e0: f8d6 86bc 766b 193d 48ed bd3c 6466 d03d
000000f0: 7872 e8bd 7587 893c 07c7 b83d f451 943d
0.08471625 0.08136973 0.019509584 -0.016016841 -0.008117527 -4.0942105e-05 0.00376755 -0.10404222
0.062853105 -0.040113557 -0.032918405 -0.04488403 -0.05752335 -0.056805402 0.02230601 0.005519092
0.07708288 0.024093311 -0.052920584 -0.058258723 -0.078487776 -0.1072959 -0.0754253 -0.068884924
0.037283298 -0.008307161 -0.10337278 0.0030343533 -0.007183999 -0.06525357 -0.10123385 0.0013165828
-0.052076284 0.081705555 -0.03458239 0.09368971 -0.023922896 0.045205027 -0.06754954 -0.0147987055
-0.024113223 -0.056315817 -0.007782924 -0.0033508711 -0.12160054 -0.03565283 0.10270267 -0.061840907
0.09057703 0.04106213 0.050116807 -0.024854437 -0.06564014 -0.07222509 0.009160988 0.02233313
-0.016459927 0.037456 0.023184434 0.101757795 -0.11349958 0.016788224 0.090223365 0.07242194

net.4.weight f4 [15, 64]
00000000: 2e1a 01bd 8ef7 f73d 40ef d4bb b654 b93d
00000010: 7098 553c 829a ccbd aeac 83bd 6c24 8d3d
00000020: d197 c43d cb29 b83d 9f79 b03d 67c8 043e
00000030: 787e 94bd 5479 163d 3e79 26bd f877 26bd
00000040: 4329 5fbd 09b4 ba3d 3d7c 43bd 5f64 833d
00000050: f866 0a3e 5875 d53c d466 a23d 2d17 983d
00000060: 1af3 ddbd 0337 42bc 5abc a13d 842b 733d
00000070: d82d e5bc c2d1 d63d ba55 ff3b bd3e 92bd
00000080: d22c f2bd 94c2 0ebd b89e b73d 08d5 fdbd
00000090: 8a07 9bbd 60c5 5dbd d860 693d 44ef b73d
000000a0: c08a 68bc dbf6 f53d 0522 b53c 2802 053d
000000b0: 7039 6ebd 76af 67bd 5c4b c93d f0bd efbc
000000c0: 4fbf 1f3d 802e dfbc 2056 cabd 5c10 a4bd
000000d0: efcf 59bd fcdf b1bd 9c30 cab9 3c5a 5c3d
000000e0: 086a 30bd f531 0c3a 00ca 1cbd 60dd 79bc
000000f0: 446a 303d 380d 633d 1a62 85bd b191 40ba
00000100: 6301 ccbd 66db 933d 08ad 1e3d aa8a f73d
00000110: a04f e83d a7de 0bbc 7804 dc3c 35d5 fb3c
00000120: aa7f ae3d 92cb 0ebd 65f2 8b3d 3067 0b3e
00000130: f196 9f3d 3812 cc3c dcdb d1bd e058 ec3b
00000140: f3b5 383c 4919 2c3e f76c 88bd e837 2f3c
00000150: 4dfb 743d e436 0fbd a0fb 983c 891b 823d
00000160: 2b38 23bd 8062 93bb e0de eabb acf5 563d
00000170: 8070 5abd 6054 bdbd 93d8 94bb b577 c53c
00000180: 9de1 31bd d65d 82bd 7c4a 613d 3205 f83d
00000190: 4681 a03d 6076 89bd 4068 773d d57d 1dbd
000001a0: 3435 2cbd 6667 9dbd 3cb4 9d3d 1d9c 093d
000001b0: a808 eabc dde2 883d 36e1 93bc e6e4 c43d
000001c0: 3de7 243d 62cd f2bd c2c6 d93d 2c57 b33d
000001d0: 5eb9 f93b 8ee5 9a3c 7da0 52bc 1239 fcbd
000001e0: c816 92bd 0e23 34bd 28b1 eb3c 1264 d3bd
000001f0: c652 f23d 492c 933c ce4a e13d ad8a 22bd
00000200: eaca aebd 34aa 4ebb f0fd c93d e2f4 f6bd
00000210: 0678 6bbd 835a 31bc a88d 19bd a0a9 ccbd
00000220: 1a68 08bd 54be 78bd 4c5b c9ba 989f 033e
00000230: e94f 5e3d 40df 4c3d 253c 5cbd ce54 c13d
00000240: 2dd3 b43b 4dd3 683d 2794 3cbd 6416 db3d
00000250: 42f7 043e 3679 ebbd d4f1 2fbd 5894 dc3d
00000260: 025b bdbd 1ce2 b3bd 40d2 e43d 36e1 963d
00000270: 8611 f43d 1d85 e2bd e420 65bc acd6 5d3d
00000280: 1175 18bc 765f c33d 50cd de3c 60c9 593d
00000290: de93 a03d c4d4 dc3d a06b 7fbc b048 86bd
000002a0: 8acf 97bd c9bc 64bc 7e3b ba3c eef0 a73c
000002b0: 80f7 f6bd 6957 d3bc a3bb 90bd 80be 9f3c
000002c0: 9229 083d c40b 9c3d a4bb cbbd 58af 2cbd
000002d0: 7238 8ebc 55f4 a2bd a4c6 c23d 26b9 9d3d
000002e0: 1cb0 ffbd e3ad 0c3c 56f4 fb3d 5ed5 9cbd
000002f0: b036 1fbd c814 87bd e50a 2b3c 1686 1fbd
00000300: 06db e1bd 18ab 16bd c03d 7bbb d456 b9bd
00000310: 2ada eb3d 83a3 20bd 302a e13c f5bb 69bb
00000320: 7e22 9b3d c0d6 493d ae00 c4bc a947 733d
00000330: 0f66 0ebd 9c41 8c3d a007 80bd 7815 80bd
00000340: 5837 423d 4410 af3d d95b bc3d de96 bd3d
00000350: eb5b e43d 2086 de3c b0b9 6cbc a3b2 d53c
00000360: b2d1 d6bd 40da 3cbd e006 3fbd 5470 c53d
00000370: 80e6 b43b 62d9 d4bd d864 c23d cd37 923d
00000380: 7ab2 7b3d 20bc b33c 70c9 5a3d f085 eebd
00000390: 43eb debd a04f 3c3c b8aa 02bd 00d4 60bd
000003a0: c439 18bd 4b39 933d 65bd 11bd 1474 eb3c
000003b0: 6862 e73c 4b29 ca3d 72b5 cabd 48f8 823c
000003c0: 055f 9dbd 805b 893d ac0a 593d 30b3 633d
000003d0: ef93 95bd e519 d9bd c714 5dbd b866 d5bd
000003e0: e84a c73d 760a 8c3d 0af8 a03d 3a6b f33d
000003f0: 9840 e1bd ecc3 b0bd a40c 4e3c a737 ffbc
-0.031519108 0.12107764 -0.0064982474 0.090493605 0.013036832 -0.099904075 -0.064294204 0.068917125
0.09599269 0.089923464 0.086169474 0.12967072 -0.072506845 0.0367368 -0.04064297 -0.040641755
-0.05448271 0.0911637 -0.047725905 0.06415629 0.13515842 0.02605693 0.07929769 0.074262954
-0.108373836 -0.011853936 0.07897253 0.05936767 -0.027975962 0.10489227 0.007792202 -0.07140873
-0.11824955 -0.034853533 0.0896582 -0.12394148 -0.07569797 -0.05414331 0.056977123 0.08981183
-0.014193237 0.120099746 0.022110948 0.03247276 -0.058160245 -0.056563817 0.09828827 -0.029265374
0.039000805 -0.027243853 -0.09879708 -0.08010933 -0.053176817 -0.086853 -0.0003856466 0.05379699
-0.04306987 0.00053480203 -0.03827858 -0.015250534 0.043070093 0.05543253 -0.06512852 -0.00073459285
-0.09961202 0.07219581 0.038739234 0.12086995 0.11343312 -0.008536971 0.0268576 0.030741313
0.08520444 -0.03486211 0.068333425 0.13613582 0.07792462 0.024911031 -0.10247013 0.007212743
0.011273849 0.1680652 -0.066614084 0.010694481 0.05980997 -0.034964457 0.018674672 0.06352908
-0.039848488 -0.004497826 -0.007167682 0.052480385 -0.053329945 -0.09244609 -0.004542419 0.024104932
-0.043428052 -0.06365554 0.055002674 0.12110366 0.07837157 -0.06712031 0.060402155 -0.03845008
-0.042042926 -0.07685737 0.077003926 0.033596147 -0.02856858 0.06683896 -0.018051725 0.096139714
0.04025959 -0.1185558 0.10633613 0.08756861 0.0076209744 0.018908288 -0.012855646 -0.12315573
-0.071332514 -0.043978743 0.028770998 -0.10321821 0.11832194 0.017965453 0.11000596 -0.039683033
-0.085347965 -0.0031534554 0.09862888 -0.120584264 -0.05748751 -0.010824802 -0.03748861 -0.09993291
-0.033302404 -0.060728386 -0.0015362292 0.12853849 0.054275427 0.050017595 -0.053768296 0.09440003
0.005518338 0.056842137 -0.046039727 0.1069763 0.12984946 -0.114977285 -0.042955235 0.10770482
-0.09245874 -0.08783361 0.111729145 0.07367174 0.11917405 -0.110605456 -0.0139848925 0.054159805
-0.009305255 0.09539692 0.02719751 0.05317056 0.078407034 0.10782769 -0.015589625 -0.06556833
-0.07412632 -0.0139610255 0.022733446 0.020500626 -0.12058926 -0.025798516 -0.07067039 0.019500017
0.03324277 0.076194316 -0.09947899 -0.04215941 -0.0173609 -0.07956759 0.09510544 0.0770133
-0.12484762 0.00858638 0.12302463 -0.07657884 -0.038870513 -0.065957606 0.010439609 -0.038946234
-0.110281035 -0.03678426 -0.0038336366 -0.09049764 0.11516221 -0.039218437 0.027485937 -0.003566501
0.07574938 0.049277067 -0.023926105 0.059394512 -0.0347653 0.068484515 -0.06251454 -0.06254095
0.04741606 0.08548024 0.09197206 0.09257291 0.111503445 0.027163565 -0.014448568 0.026086157
-0.10489215 -0.046106577 -0.046637416 0.096405655 0.005520642 -0.10393025 0.09491891 0.071395494
0.061449505 0.02194029 0.053414762 -0.1164664 -0.10884716 0.011493593 -0.03190109 -0.05488968
-0.037164465 0.07188662 -0.03558101 0.028741874 0.028245166 0.09871157 -0.09897889 0.01598753
-0.07684139 0.06706905 0.052988693 0.05559081 -0.07303607 -0.10600642 -0.053974893 -0.10419983
0.09731084 0.06837933 0.0785981 0.11885686 -0.109986484 -0.08631119 0.012576256 -0.031154467

net.4.bias f4 [15]
00000000: db35 2e3c 4e7d b4bd ad61 39ba 07d0 0fbd
00000010: fc5c 17bd 2309 9a3d 0acd 303d d48d c1bd
00000020: af46 6fbd 5ab4 7f3d cd6e d53d e69a 4dbc
00000030: 17cf 963b 1600 bc3b b99c e7bd
0.010632957 -0.088129625 -0.0007071745 -0.0351105 -0.03695391 0.07521274 0.04316429 -0.0945088
-0.05841702 0.062427856 0.10421524 -0.012549138 0.0046023238 0.005737315 -0.11309189
